weight and bias files _ 12/conv3_bias.npy (npy, 608 bytes, 1 tensors)

array f4 [120]
00000000: 9245 0abd 7748 953b 878a 163b 4a5c a8bc
00000010: 0521 243c 07f3 75bc 66bc 37bd bda0 4d3b
00000020: d5c3 133d f57d bb3c 7ad3 4d3c 4f23 20bd
00000030: f5ed cabc 6509 153d 1cc4 db3c 0d69 893a
00000040: 4525 bebc 16b7 28bd 92a2 a93b 9760 4e3d
00000050: 4363 55bd a329 59bd 922d 283d de8c 9ebb
00000060: 1299 3b3d 199d d63b c014 c23b d0db 45bd
00000070: 9ba3 8fbc 77d2 d0bb 7961 95bb 165b 12bc
00000080: 32d4 0d3c 53a1 83bc 3f2f ecbc 9fa8 2b3d
00000090: 2522 0c3d 0e9e 543c 343c fbbc 6d67 11bd
000000a0: 1ddb 98bc 8d05 a03c b3ee 2d3d a4c5 0b3d
000000b0: ed8c b33c 6186 683c 8403 efbc 0f53 dc3c
000000c0: 2876 253d c571 003d ce89 c2bc 868d 403d
000000d0: a04d 943c 08a8 15bd 80f2 293c 23be b3bc
000000e0: 1446 72bb 6aa8 063d 0d82 2f3d 7748 fd3c
000000f0: 98ae 883b db5a 573b f115 4a3d a4ed 20bd
00000100: 9598 2d3d 6b96 5cbc 4c37 03bc 1ba2 1ebd
00000110: b0e3 0f3d a6d8 543d 138f d3bb e86f cbbc
00000120: af4a c83b aaf1 48bd e197 eabc 11fe 10bd
00000130: a53f 0bbd 9acb 0dbb c2d6 0a3d 24e4 aabc
00000140: 026d a6ba 4289 20ba c723 99bc 0807 30bc
00000150: 50f9 a33c 1866 fc3b 3981 d33c be40 653b
00000160: 3306 153d 27e7 ddbc 3492 91bb c8f8 c0bb
00000170: 1364 97bc 7040 2b3c 194e eebb 2f04 26bd
00000180: 9080 313c ba2d e63c 3ff0 373d 4d20 6dbb
00000190: 92c7 a23b 76c5 213b bee7 66bd 1749 34bb
000001a0: 94fc 1dbd f75e 1e3d 09aa b03b ae02 04bb
000001b0: 627c e8bc a8c2 69bc 12ab 65bd c8e8 65bb
000001c0: 084f 3d3d 1b55 04bc 54aa 023d 69e4 383c
000001d0: a8b7 f4bc 5a21 a1bb 06cd e43c 84f6 823c
-0.033757754 0.0045557576 0.0022970752 -0.02055182 0.010017638 -0.0150115555 -0.044857405 0.0031376325
0.03607543 0.02288721 0.012562627 -0.039096173 -0.02477167 0.036385912 0.02682691 0.0010483578
-0.02321113 -0.04119023 0.0051768506 0.050385084 -0.052096616 -0.053018223 0.041059084 -0.00483857
0.045800276 0.006549489 0.0059228837 -0.048305333 -0.017534068 -0.0063727456 -0.004558739 -0.008932849
0.008656548 -0.016068136 -0.028831122 0.041908856 0.03421225 0.012977136 -0.030668356 -0.035499025
-0.018659169 0.019533897 0.04246397 0.03412403 0.021917785 0.014192195 -0.029176481 0.026895074
0.040395886 0.0313585 -0.023747351 0.047009967 0.01810342 -0.0365372 0.010372758 -0.02194125
-0.003696804 0.032875456 0.042848635 0.030918343 0.004171204 0.003286055 0.04933733 -0.03928913
0.04238184 -0.013463597 -0.008008789 -0.038728815 0.03512925 0.051964425 -0.0064562648 -0.024833634
0.0061124186 -0.049058594 -0.028636875 -0.035398547 -0.033996243 -0.0021636249 0.033896215 -0.020860739
-0.0012697282 -0.00061239686 -0.018693818 -0.010743864 0.020016342 0.0077026 0.025818454 0.0034981216
0.036382865 -0.027087761 -0.0044424776 -0.005889032 -0.018480336 0.010452375 -0.0072724936 -0.040531334
0.010833874 0.028097976 0.04490685 -0.0036182583 0.0049676383 0.0024684346 -0.05637335 -0.0027509385
-0.038570955 0.038664784 0.0053913635 -0.0020143199 -0.028379623 -0.014267601 -0.05607135 -0.0035081375
0.04621795 -0.008076931 0.03190072 0.011284926 -0.02987273 -0.004917306 0.027929794 0.015986688
