pytorch_LeNet5/model_no_13/conv1_weight.npy (npy, 728 bytes, 1 tensors)

array f4 [6, 1, 5, 5]
0	0xbe8ccbec	-0.2749933
1	0x3e92e42e	0.28689712
2	0x3ee8f5fc	0.4550017
3	0x3f0c3e57	0.54782623
4	0x3f150310	0.582078
5	0x3f3f7ab8	0.7479663
6	0x3fb8fae0	1.4451561
7	0x3fdbd352	1.7173865
8	0x3fd78606	1.6837776
9	0x3fd4aa5c	1.661449
10	0x3fb7cab0	1.435873
11	0x4016ab58	2.354208
12	0x403e46ef	2.9730794
13	0x403f71c6	2.9913192
14	0x4005ed4f	2.0926092
15	0x40063852	2.0971875
16	0x403270d4	2.7881365
17	0x4047d433	3.1223266
18	0x4039657b	2.8968189
19	0x40124014	2.285161
20	0x3fdabf8b	1.7089704
21	0x3ffe3679	1.9860374
22	0x400bd6f0	2.1849937
23	0x3feed203	1.865784
24	0x3fc11c7c	1.5086818
25	0x3d2d3520	0.042286992
26	0x3dfcb7b7	0.12339728
27	0xbcb93fda	-0.022613455
28	0xbe201fca	-0.15637127
29	0x3d413e33	0.04717846
30	0x3a00fe67	0.00049207214
31	0x3d06f7ed	0.032951284
32	0x3dc99d4d	0.09844456
33	0xbe094e12	-0.13408688
34	0x3e299185	0.16559418
35	0x3db3a8a3	0.08772399
36	0x3d9553e0	0.072913885
37	0xbd87c7a7	-0.066298775
38	0x3d05cca0	0.03266585
39	0xbe2e47cf	-0.1701958
40	0xbe2c797b	-0.16843216
41	0xbd88f570	-0.066874385
42	0x3e407325	0.18793924
43	0x3c8c3ccd	0.017118836
44	0x3e14b17a	0.14520827
45	0x3c9c584d	0.019085074
46	0x3d826780	0.06367397
47	0xbd9c8387	-0.07642274
48	0x3d6064a7	0.05478349
49	0xbe2dffe0	-0.1699214
50	0xbefe93a4	-0.49722016
51	0xbf4bbf46	-0.79588735
52	0xbfac6a6c	-1.3469977
53	0xbfa83e1f	-1.3143958
54	0xbf99d2d9	-1.2017471
55	0xbfced3f5	-1.6158434
56	0xbff1a605	-1.887879
57	0xc0073fbd	-2.1132653
58	0xc02052d2	-2.505055
59	0xc004cddb	-2.0750644
60	0xc010fb2b	-2.26533
61	0xc0345480	-2.8176575
62	0xc0464dd5	-3.0985005
63	0xc037f1ba	-2.8741288
64	0xc02ae37f	-2.6701353
65	0xc008daec	-2.138362
66	0xc023035a	-2.5470796
67	0xc019d4ed	-2.403621
68	0xc00c4c0d	-2.1921418
69	0xc00149cb	-2.020129
70	0xbf99ab5b	-1.2005419
71	0xbfb9e208	-1.4522104
72	0xbfbc1fa1	-1.4697152
73	0xbf908b0e	-1.1292436
74	0xbf85efed	-1.0463845
75	0xbf29526b	-0.66141385
76	0xbf556f9e	-0.8337344
77	0xbf6eebb0	-0.9332838
78	0xbfa6fa45	-1.3045126
79	0xbf7a0658	-0.9766593
80	0xbfaa208f	-1.3291186
81	0xbfdcede8	-1.7260103
82	0xc00cf3b1	-2.2023737
83	0xc0179d97	-2.3689935
84	0xbff983f1	-1.949339
85	0xc00bc564	-2.1839228
86	0xc0323254	-2.7843218
87	0xc040c2d3	-3.0118911
88	0xc02e727a	-2.725737
89	0xc01d5e44	-2.4588785
90	0xbfefb624	-1.872746
91	0xc01cbb19	-2.4489195
92	0xc017a028	-2.3691502
93	0xc00236bc	-2.0345907
94	0xbfbd1c75	-1.4774309
95	0xbfa0865f	-1.2541007
96	0xbfb134a4	-1.384419
97	0xbf79746a	-0.9744326
98	0xbf5e2add	-0.86784154
99	0xbf6816ef	-0.90659994
100	0x3e3b3a5d	0.18283983
101	0xbdb72d57	-0.08944195
102	0x3e0fdea2	0.14049771
103	0x3e407050	0.18792844
104	0x3d8e8f17	0.06960886
105	0x3d7c89d3	0.061654877
106	0xbe169c20	-0.14707994
107	0xbd5cea53	-0.053934406
108	0x3dbdac13	0.09261336
109	0xbe35bde8	-0.17748225
110	0x3d9cd607	0.0765801
111	0x3e27683a	0.16348353
112	0xbe1b830b	-0.15186708
113	0xbdcee6e7	-0.10102635
114	0xbe3c06bf	-0.18361948
115	0x3e2eea27	0.1708151
116	0x3e4bdff3	0.19909649
117	0xbd92f0a7	-0.07174807
118	0x3c91500d	0.017738366
119	0x3dc28720	0.09498429
120	0x3c4fd067	0.012683964
121	0x3d505767	0.050864603
122	0x3e0dd3fa	0.13850394
123	0xbccc025a	-0.024903465
124	0xbe2869ef	-0.1644666
125	0xbe487a22	-0.1957784
126	0x3d90044d	0.0703207
127	0xbe277ed2	-0.16356972
128	0x3d93b33a	0.07211919
129	0x3e09fdf7	0.13475786
130	0xbdb09850	-0.08622801
131	0x3d8d3c00	0.0689621
132	0xbe0e287b	-0.1388263
133	0xbc46254d	-0.012093854
134	0x3d1be12d	0.03805654
135	0x3db8f180	0.090304375
136	0x3d9c791a	0.07640286
137	0x3cf6c780	0.030124426
138	0xbe4535c8	-0.19258797
139	0xbabc0c00	-0.0014346838
140	0xbd0c0967	-0.034188654
141	0x3dd4e36a	0.10394938
142	0x3d8b3e80	0.0679903
143	0x3e25a3a5	0.16175707
144	0x3e275b17	0.16343342
145	0x3d02e147	0.031953122
146	0x3e2d4f20	0.16924715
147	0x3d27f1fa	0.04100225
148	0xbe269737	-0.16268621
149	0xbe463bcd	-0.1935875
