pytorch_LeNet5/model_no_13/fc1_weight.npy (npy, 40448 bytes, 1 tensors)

array f4 [84, 120]
000000 0f 72 a8 be 9f 59 ab 3e d7 16 50 3e 06 3e 9a 3d
       -0.3289952 0.33466813 0.20321213 0.07531361
000010 c9 64 32 3d 7d bd ad bd a3 8c 48 bd e1 e4 ad 3d
       0.043553147 -0.08483408 -0.048962247 0.08490921
000020 7b 45 75 3e 3b c6 45 3d bf 85 84 bd d0 0a 9d 3d
       0.23952286 0.04828475 -0.064708225 0.07668078
000030 99 11 cc be a2 84 ba 3e 26 a9 98 3e 73 c6 7c be
       -0.39857176 0.36429316 0.2981655 -0.24685077
000040 7e 22 75 be a3 9d a8 3e ff 94 d4 3d 37 79 b0 bd
       -0.23938939 0.32932767 0.10379981 -0.0861687
000050 e3 04 33 3e 07 3c 9d bd 19 10 61 be 2f 81 61 3e
       0.17482333 -0.07677465 -0.21978797 0.22021936
000060 29 ec 22 be 8b 88 61 be 4a cd ad 3d ed ae c1 3c
       -0.159104 -0.22024743 0.084864214 0.023642981
000070 33 31 bd bb 6b ad a8 3d 93 26 92 3d 99 68 7f 3c
       -0.0057736873 0.08236202 0.07136264 0.015588903
000080 4d 16 20 bd ac b1 8e bd 9d aa a2 bb d1 53 87 3b
       -0.039083768 -0.06967482 -0.0049641863 0.0041298647
000090 7e 59 31 3b fb 3d 10 be 98 26 62 bc 99 36 97 bd
       0.0027061398 -0.14086144 -0.013803147 -0.073834606
0000a0 f6 d7 48 bc 41 3a e7 bc 62 fb a9 3e 43 68 0d bb
       -0.01225852 -0.02822602 0.33199602 -0.0021577037
0000b0 68 3a 89 bc 9c 21 5c 3d 38 2b 9b be 3f 7c e6 bd
       -0.016751483 0.05374299 -0.3030641 -0.11254167
0000c0 84 aa cd bc b1 bd a8 3b 0e 52 8d 3c 4d dd 5d bd
       -0.025105722 0.005149566 0.01725104 -0.054166127
0000d0 5a f3 0e bd 4f 61 8e 3d c3 59 5a bd 03 f5 81 bd
       -0.034900047 0.06952154 -0.05330826 -0.063455604
0000e0 42 5b 89 bd 32 e0 22 3e 00 68 82 be 78 0e 84 3e
       -0.06706859 0.15905836 -0.2546997 0.2579229
0000f0 c4 17 ef bc 33 64 a9 bd a0 ed 4a bd c8 e1 25 bd
       -0.029186137 -0.082710646 -0.049543023 -0.040498525
000100 cf 79 8e 3d e3 9d f2 bd de 4e 39 bd c7 8c dc bc
       0.06956827 -0.11846521 -0.04524123 -0.026922597
000110 f8 85 ac 3d b8 24 3d 3e 13 d4 bf bc 14 b8 8a bd
       0.0842399 0.18471038 -0.023416555 -0.06773391
000120 1f c6 36 3e e4 38 4a be 10 d7 c2 bc b3 b4 90 3e
       0.17849015 -0.19748265 -0.02378419 0.28262863
000130 a4 c8 00 bd ec 18 e1 3d 8f 19 ac 3d 44 fe 08 3d
       -0.031441346 0.109910816 0.084033124 0.03344561
000140 5e 00 29 bd 0d 37 ed 3e af a9 8e bd b4 d0 5f 3e
       -0.041260116 0.46331063 -0.06965958 0.21856958
000150 f0 8f 5d bd f0 5c 3b 3e 6f 13 29 3e 27 af 79 be
       -0.054092348 0.18297172 0.1651132 -0.24383222
000160 2f 74 90 be bf cb b3 bd 0d ca 02 bc 5f 58 98 bc
       -0.2821364 -0.08779096 -0.007982743 -0.018596826
000170 7d 0b 3a be 4f 4d 3e bd be f0 9b 3d 91 08 a6 bc
       -0.18168445 -0.046460446 0.07614277 -0.020267757
000180 52 fa 86 3d f7 9f f1 3e a5 80 8a 3d ad 56 9d 3c
       0.065907136 0.47192356 0.06762818 0.01920637
000190 fc c3 a7 3d 2e d2 26 bd da 3c 86 be 53 a8 67 bd
       0.08191678 -0.040727787 -0.262183 -0.05655701
0001a0 8f 30 13 be 72 8c ed bc 19 60 d9 3e 8d be 5e 3d
       -0.14373992 -0.028997634 0.4245613 0.054380942
0001b0 d9 bc b6 3c 73 5a eb bc cf a4 59 3e 58 5c c9 bc
       0.022306846 -0.028729653 0.21254276 -0.024580166
0001c0 23 b7 41 3e 8c 6c 69 bd 79 c2 14 3d 64 2c b1 3d
       0.18917517 -0.056988284 0.036318276 0.08651045
0001d0 51 72 b0 3c 69 55 68 3d 0e 28 85 bd c3 27 b5 bd
       0.021538885 0.05672208 -0.065017805 -0.088454746
0001e0 f4 8d fa 3b bf c0 2f 3d 9e a8 82 bd a5 d7 8a bd
       0.0076463167 0.042908426 -0.063798174 -0.06779412
0001f0 dc 0f 61 3d bf d8 aa bd d4 7d 26 3d 4c 36 78 bc
       0.054946765 -0.08342122 0.040647343 -0.015149664
000200 ef fb 68 bd 3d fb b9 3d e0 05 45 bd 7e db 9c bd
       -0.056880888 0.09081123 -0.048101306 -0.07659052
000210 95 02 81 bd d0 d2 0a 3d a9 11 f0 bc f4 5d d6 bd
       -0.062993206 0.033892453 -0.029305296 -0.10467139
000220 51 af ba 3d 15 55 9c bd 38 77 62 bb 80 2d e3 3c
       0.0911547 -0.076334156 -0.0034555923 0.027731657
000230 66 45 e3 bd 78 d0 40 3d 5a 18 9e bd 1f 5a 33 bd
       -0.11097221 0.04707381 -0.077194884 -0.043787118
000240 8e ad bf bd 47 bb 74 3c 28 b0 47 3d 06 25 7c bc
       -0.09359275 0.0149372285 0.04875198 -0.015389686
000250 7c d2 8c bd 47 b3 90 3d 14 c1 92 3d 3f da 65 bd
       -0.06876084 0.070654444 0.07165733 -0.05611634
000260 8f d3 7e bd 2b 83 28 3d ec 1e 80 bd 17 a4 bb 3d
       -0.062213477 0.041140717 -0.06255898 0.09162157
000270 d0 1e cd bd 42 e6 c5 bd 0b 4f 60 3d eb 67 73 bd
       -0.10015643 -0.09663059 0.05476288 -0.059425276
000280 21 7b a1 bb a2 bc b4 3c 39 42 a1 bd d9 59 86 3c
       -0.004928008 0.022062603 -0.07873959 0.016400265
000290 75 53 1b bd f5 3a 80 3d 0b cc b3 bd de da fc 3c
       -0.037921388 0.06261245 -0.087791525 0.030866083
0002a0 b6 66 21 bd 2e 61 d0 3a 8d 99 14 ba d2 52 82 3d
       -0.039404593 0.0015898102 -0.0005668633 0.06363453
0002b0 cb a8 d1 3c c6 92 92 3d 44 69 52 3d 67 7a 8a 3d
       0.025593182 0.07156901 0.05136992 0.06761628
0002c0 3c 8c a9 bd 35 2a 86 bd 9c fb 0f 3a 4f 82 3f bd
       -0.08278701 -0.06551019 0.000549251 -0.04675513
0002d0 06 ef 88 bc 6e f1 87 3d 00 fc 5e 3d 45 c8 45 bd
       -0.016715538 0.06637846 0.054439545 -0.048286695
0002e0 44 23 44 3d c2 25 c5 bd cb 26 82 3d 80 a2 89 bc
       0.047885194 -0.09626342 0.063550554 -0.016801119
0002f0 8d b4 64 bd 27 20 2e bd 77 bf 06 3c 7a 4e 74 3d
       -0.05583625 -0.04251113 0.00822436 0.059645154
000300 e1 b9 37 3d 48 5f cc bd c1 70 03 bd 6b 74 e5 3c
       0.044855002 -0.09979111 -0.032089952 0.028009614
000310 54 22 87 bd ca 45 cf bc de 5d 7d bd 5a bc 77 3d
       -0.065983444 -0.025301833 -0.061857097 0.06048236
000320 57 4d 48 3c 59 b2 c4 ba 09 9a c4 3c 4b 1e 0c bd
       0.0122254705 -0.0015006765 0.023999231 -0.034208577
000330 0f 48 e7 bc ed 54 11 3d 43 f0 94 bd 6d d0 36 bd
       -0.028232602 0.035481382 -0.07272389 -0.044632364
000340 8b 4a cd bd de eb 0a bd e1 4e a6 bd af fe 30 3d
       -0.100239836 -0.033916347 -0.08120514 0.043211635
000350 51 68 3e bc 71 6f 2a bc 9d 55 97 3c 68 e5 51 3d
       -0.011621551 -0.010402546 0.01847344 0.05124417
000360 c5 77 b2 bd 36 45 57 3d 86 09 b2 3c ba 08 fd bd
       -0.087142505 0.05255624 0.021733057 -0.1235518
000370 b3 08 91 3c 06 bd 51 bd b3 00 a7 bb 32 7f 66 bd
       0.017704343 -0.051205657 -0.005096519 -0.056273647
000380 5b 2f 17 3d 1a 5c bc 3c 4b 4a af bd ef f6 3e 3d
       0.036910396 0.022993136 -0.08559092 0.046622213
000390 c2 f5 91 3d fa 50 4b 3d 2d 14 e6 3c ab 23 b3 3d
       0.07126953 0.049637772 0.028085792 0.087470375
0003a0 ea d0 43 3d 59 55 ff bc 29 ee a7 3d a1 22 4b 3d
       0.047806658 -0.031168627 0.08199722 0.04959357
0003b0 e3 aa a3 3d bc 9f a0 bd 35 73 00 3c b6 e3 70 3d
       0.079915784 -0.07842967 0.0078399675 0.058810912
0003c0 39 e3 98 bd 4d 70 38 bd 96 b9 ce bd f8 c5 84 3d
       -0.07465214 -0.045028973 -0.100939915 0.06483072
0003d0 20 55 81 bd ec ae 55 3d 10 5b 19 bd 7f a9 95 bd
       -0.063150644 0.05216877 -0.03744036 -0.073077194
0003e0 f4 ba a5 bd a6 0a 2d bd 2e d0 30 3d ef ac 74 bd
       -0.08092299 -0.042246483 0.043167286 -0.059735235
0003f0 5d 1a 65 3d 5e ae 83 3d 0b 07 53 bd ef 24 9f bd
       0.055933345 0.06429742 -0.05152039 -0.077707164
