pytorch_LeNet-5/model_no_13/conv2_weight.npy (npy, 9728 bytes, 1 tensors)

array f4 [16, 6, 5, 5]
000000 aa 25 63 3d fc fe 56 bd 9d a3 a2 3c 3b 29 46 bd
       0.05545584 -0.052489266 0.019853408 -0.048379164
000010 db f9 ff bc a5 8a 7e 3d af 7a 2a bc a3 d5 c7 3c
       -0.03124707 0.06214394 -0.010405227 0.024393862
000020 03 b6 8f 3c dc 44 a7 bc 57 68 50 3c a6 ea 27 bd
       0.017542845 -0.020418577 0.012720189 -0.040995263
000030 e4 ff 5d 3d ba b5 ca bc 70 22 98 3d a5 a0 59 bd
       0.054199114 -0.024744857 0.074284434 -0.05313172
000040 3c 1c 88 3d 86 ac 3d 3d 71 1a 9e bd f8 8c bf 3c
       0.0664601 0.04630711 -0.07719887 0.023382649
000050 f3 2d 1c bd 6a db 9e bd 73 97 1b bd 2c 5d 6f 3c
       -0.038129758 -0.07756694 -0.03798623 0.014609616
000060 49 72 f6 bc b9 25 47 3d ce bc 5d 3a 21 48 74 3b
       -0.030083792 0.04861996 0.0008458615 0.0037274437
000070 de 88 6b bd 14 8d b9 bb 3a 76 bd 3c 3d 19 a7 3a
       -0.057503574 -0.00566257 0.023127664 0.001274861
000080 1c 46 b6 bc db ce 81 3d 50 b9 ac 3c 90 31 51 3c
       -0.022250228 0.06338283 0.021084458 0.012768164
000090 b6 b2 12 bd 83 7b 07 3c b5 04 9c bc 4f cf a0 bc
       -0.035814963 0.008269194 -0.019045213 -0.019630102
0000a0 a4 9d 10 bd 0f f0 54 3d fe 83 0b 3d 5e b8 93 bb
       -0.035306588 0.05198675 0.034061424 -0.0045080623
0000b0 ac c7 69 3d 88 af 71 3d e3 7b 80 3d a4 85 a0 bc
       0.057075188 0.05900529 0.062736295 -0.019594975
0000c0 20 d3 78 bd 3b 7c ad bc 2d 8a c9 bb 5e 2d 3e bc
       -0.06074822 -0.021177402 -0.006150505 -0.011607496
0000d0 7e 2c da bc 43 ef 0c bd aa ee d1 bc 0d 73 af 3c
       -0.026632544 -0.034407865 -0.0256265 0.021417165
0000e0 95 40 93 bd d7 a9 f2 3c 5b b5 81 3d 41 f7 3d bd
       -0.071900524 0.029622002 0.06333419 -0.046378378
0000f0 3f 8e 6c bd 97 76 88 bd 4a 8c f1 3c a6 7e b9 bc
       -0.057752844 -0.06663244 0.02948584 -0.022643398
000100 77 a0 5f bd 2e 6a c0 bb 29 d1 0f bd 0f da 2a bd
       -0.05459639 -0.0058720326 -0.03511158 -0.041711863
000110 d1 09 69 3b 7c 66 87 bd 70 b6 1c 3d 6d bd 08 3d
       0.003555883 -0.06611344 0.038259923 0.033383776
000120 35 db 2b 3d 55 cb 2a 3d 1c 74 b7 bc 52 13 1b 3d
       0.0419571 0.04169782 -0.022394232 0.037860222
000130 9b 1d c1 bc be 3e 87 3d fe 77 27 3d 3c 84 86 bd
       -0.023573687 0.06603764 0.040885918 -0.065681905
000140 46 28 a0 3d 00 b3 18 3c 61 45 6e 3d 98 30 df 3c
       0.078201815 0.009320021 0.058171634 0.027244851
000150 01 71 5e bc 39 4c 40 3d 35 27 76 bd 76 dd 85 3d
       -0.013576747 0.04694769 -0.060095984 0.06536381
000160 2a 3d ef bc 9e 7d 24 bd 33 e5 00 bc 5a d9 6b bc
       -0.02920397 -0.04015886 -0.007867145 -0.014395082
000170 73 3d f2 3c df df 47 3d 30 0d 8c bd b4 2e 2d 3d
       0.029570317 0.048797484 -0.06838453 0.042280868
000180 9b a4 5e 3d 63 61 4f 3c 63 1a ec 3b 7c e8 ac 3b
       0.0543562 0.012657496 0.007205294 0.0052767377
000190 c2 a2 98 bd 94 dc 83 bd b0 06 da bc 3b eb 54 bc
       -0.074529186 -0.06438556 -0.026614517 -0.012995536
0001a0 d6 02 53 bd 74 a1 9a bd ca ec a2 3c dd 94 9e bd
       -0.051516376 -0.07550326 0.0198883 -0.07743237
0001b0 26 b3 84 bd fc 89 99 3b 17 c2 7b 3d ba de 7f 3d
       -0.06479482 0.0046856385 0.061464395 0.062468268
0001c0 b0 7c a7 bc 18 ac c2 bb 6e 81 64 3d 70 5c 61 bd
       -0.020445198 -0.0059409253 0.055787496 -0.055019796
0001d0 57 f1 48 3d 75 97 15 bd bb ad 62 3d 79 f2 49 bd
       0.049058285 -0.036521394 0.055341464 -0.049303506
0001e0 0e ed 26 3d 1a 19 da 3c d8 a0 82 bc 05 25 97 3c
       0.040753417 0.026623297 -0.015945837 0.01845027
0001f0 cd 6b 7d bd e0 43 71 bd c2 31 82 bd 05 38 2b 3d
       -0.061870385 -0.05890262 -0.06357147 0.04180147
000200 26 06 22 bc 04 fc 90 bc 02 ff 53 bd 0e b1 4a bd
       -0.009889161 -0.017698295 -0.051756866 -0.04948526
000210 e8 e9 92 bd 09 45 20 bd bd bb 15 3b e8 5b 58 bd
       -0.0717352 -0.039128337 0.0022847496 -0.052822024
000220 e1 2b 8a bc 29 21 48 3c f3 84 20 3d 7e f0 8a bd
       -0.016866626 0.012214937 0.03918929 -0.067841515
000230 47 ff 89 3d f9 1c 38 bd 02 35 9e bd 4e c3 dc bc
       0.067381434 -0.044949505 -0.07724954 -0.026948597
000240 40 ed 23 3d 54 eb df 3c 01 31 82 3d 42 7f 03 3d
       0.04002118 0.027333893 0.06357003 0.032103784
000250 0f f8 04 3d e5 8b 15 3a e3 6c 99 3e 13 40 45 3e
       0.03246313 0.0005704745 0.29965886 0.19262724
000260 11 fb 46 3e 48 d9 19 3e 6f c4 fc 3c 3c 8d fc 3e
       0.19431712 0.15024292 0.030855386 0.49326503
000270 ca 17 99 3e 67 8f 86 3c 0b 35 ad bc 53 60 b8 bd
       0.29900962 0.016425801 -0.021143457 -0.090027474
000280 8e ed d2 3e 58 e6 34 3e 86 fc 68 be 04 96 c7 be
       0.41196865 0.17665994 -0.2275258 -0.3898164
000290 0b a9 9c be f7 f0 6d 3e 2e a4 95 bd 8a 39 a6 be
       -0.3059772 0.23236452 -0.073067054 -0.32465774
0002a0 65 d2 a7 be a2 fd 36 be c9 2c b7 3d 1e 38 3a 3c
       -0.32777706 -0.1787019 0.08944089 0.011365918
0002b0 cc d0 c0 3c 7f 1b d8 3d 46 5c 83 3d 99 7c 17 3d
       0.023537062 0.105521195 0.06414084 0.03698406
0002c0 0c 3a cd 3b 43 bf 99 bc 89 8c 9d 3d 5d 96 1e bd
       0.0062630232 -0.018767959 0.076928206 -0.038717616
0002d0 c4 a7 81 bd 22 c9 4f 3d d2 c3 13 bd a9 f2 16 bc
       -0.06330827 0.050728925 -0.03607542 -0.009213128
0002e0 8b 73 d8 3b 9c f1 8c bd d9 84 5f bd f6 45 5c bd
       0.0066055707 -0.06882021 -0.054570053 -0.053777657
0002f0 88 aa 90 bc 1b 99 51 3d 2b 4d 88 3d 20 d7 89 bd
       -0.01765944 0.051171403 0.066553436 -0.06730485
000300 ca 0b 5d 3d c5 d2 48 bd c3 3f 80 3d 3b 8e 3d bd
       0.05396632 -0.04902913 0.062621616 -0.04627822
000310 f5 b1 3a bb 9d 58 06 bd a9 f6 58 bd a4 4b 17 bd
       -0.0028487418 -0.032799352 -0.05296961 -0.03693737
000320 82 49 09 bd 22 99 fb bd f5 d9 cd 3c df eb b3 3d
       -0.03351737 -0.12285067 0.025128344 0.08785223
000330 be 64 e7 3c 2a c5 54 be 44 5d 98 be 12 be 8b bd
       0.02824628 -0.20778337 -0.29758656 -0.068233624
000340 56 47 95 3d 07 31 d1 3d f1 c6 78 be 64 d8 44 be
       0.07288997 0.10214429 -0.2429464 -0.19223171
000350 45 c4 95 3e 5f 6f f1 3e 3e ea fa 3e f6 56 5a bd
       0.29251304 0.47155282 0.49006838 -0.05330559
000360 71 2a f2 3c 39 1c d6 3e eb 57 be 3e d3 c4 d6 3e
       0.029561253 0.41818407 0.3717645 0.4194704
000370 1e 11 b1 3d be d2 8f 3d d0 45 e1 3d 03 9b b7 3d
       0.08645843 0.07022618 0.10999644 0.08965113
000380 fe 4c 16 3c 10 8b 33 be a4 aa a7 be 49 a3 41 be
       0.00917363 -0.17533517 -0.32747376 -0.18909945
000390 a4 78 c8 bd 16 dd 57 3d ba 2f fd be ab 0e 0f bf
       -0.097886354 0.05270108 -0.49450475 -0.55881757
0003a0 9d 5b 2e be de 76 3e 3e 8b 90 20 3e 8a 77 03 bf
       -0.17027135 0.18600032 0.15680139 -0.5135428
0003b0 72 d1 c0 be f0 e5 3a 3e 71 35 17 3f 28 0f 1b 3f
       -0.37659794 0.18251777 0.5906592 0.6057
0003c0 41 8e 95 be 1e cd 35 bd 27 13 f6 3e f3 d5 04 3f
       -0.29210094 -0.044385068 0.48061487 0.5188896
0003d0 d5 87 10 3f 01 98 8c bd d8 80 28 3d 47 96 62 3d
       0.56457263 -0.0686493 0.0411385 0.055319097
0003e0 c1 bd b3 3d 45 a0 bb 3d e5 35 c1 3b 96 2a 08 3d
       0.08776427 0.09161428 0.0058963173 0.033243738
0003f0 fa 66 7f bd ae f2 30 3d d7 9e 92 3d 5a 13 89 3c
       -0.062354065 0.043200187 0.071592025 0.01673286
