pytorch_LeNet5/model_no_18/lenet_weights_epoch(10)/fc1_weight.npy (npy, 40448 bytes, 1 tensors)

array f4 [84, 120]
0	0x3e505bfd	0.2034759
1	0x3db82ecd	0.089933015
2	0xbdc113cd	-0.09427605
3	0x3c7f788f	0.015592708
4	0xbbeb773d	-0.007185845
5	0x3dd77308	0.10519987
6	0xbb35ed22	-0.002775975
7	0x3dfd915b	0.1238124
8	0x3dd0f397	0.10202711
9	0x3bb8d861	0.0056410288
10	0xbdb3901e	-0.087677225
11	0x3d97674f	0.073927514
12	0xbdc9bef6	-0.09850876
13	0xbdacd206	-0.08438496
14	0x3cae5130	0.021278948
15	0x3d29da64	0.04146804
16	0xbdf8db40	-0.121511936
17	0x3d6972da	0.056994297
18	0xbc4afc29	-0.012389221
19	0xbd30221b	-0.043001276
20	0x3d566125	0.052338738
21	0x3c68eef9	0.014217132
22	0x3d9fa0d3	0.07794347
23	0xbe7fa17d	-0.24963947
24	0x3d6ff5a2	0.058583863
25	0xbd96c852	-0.07362427
26	0xbc348af6	-0.011019459
27	0xbe0a7e48	-0.13524735
28	0xbdb91ab3	-0.090382956
29	0x3ded78ac	0.11595282
30	0x3d583139	0.052781317
31	0xbdd89337	-0.10574954
32	0x3d8a1d25	0.0674384
33	0xbe382add	-0.17985101
34	0x39c8212e	0.00038171693
35	0xbbcd2ecf	-0.0062616835
36	0x3e022c8c	0.12712306
37	0xbd4cdf75	-0.050017793
38	0xbd8429a7	-0.06453257
39	0x3c9d395b	0.019192388
40	0x3d4689d2	0.04847128
41	0x3c8f8095	0.017517367
42	0x3db948f8	0.09047121
43	0x3d6163f3	0.05502696
44	0x3dcff46a	0.1015404
45	0xbb04d437	-0.0020268091
46	0x3d59b1cc	0.053148076
47	0x3d8aed34	0.06783524
48	0xbd7930df	-0.060837623
49	0xbdf90ccc	-0.12160644
50	0xbd164e77	-0.036695924
51	0x3dc567af	0.09638917
52	0xbdab1f02	-0.08355524
53	0xbc80b658	-0.015711948
54	0x3d2a4f94	0.041579798
55	0xbd50efa1	-0.051009778
56	0xbde390c6	-0.11111598
57	0xbd74485e	-0.059639327
58	0x3c679217	0.014133952
59	0xbcea3833	-0.028591251
60	0xbd591d88	-0.05300668
61	0x3e1d6329	0.15369858
62	0x3c49d31b	0.012318398
63	0xbc9e4b28	-0.019322947
64	0x3db54c84	0.08852485
65	0xbb7c0738	-0.003845645
66	0xbcd1fdfd	-0.025633806
67	0xbdbb9ffc	-0.09161374
68	0xbdba9883	-0.091111206
69	0xbdfb5ff8	-0.12274164
70	0xbdc664c4	-0.09687188
71	0x3cb1e441	0.021715285
72	0x3ded9db9	0.11602349
73	0x3d247921	0.04015458
74	0xbbdfbf4f	-0.0068282257
75	0xbd85899e	-0.06520389
76	0xbe16d5a3	-0.14729933
77	0xbe519182	-0.20465663
78	0xbdfa2534	-0.12214127
79	0x3d947455	0.07248751
80	0xbcd093b4	-0.025461055
81	0xbded7d71	-0.11596192
82	0xbcbc8be1	-0.023015918
83	0xbe1d4c96	-0.15361246
84	0xbca5fd25	-0.02026231
85	0xbd487098	-0.048935503
86	0x3db8c50d	0.090219595
87	0xbc8b4082	-0.016998533
88	0xbdb5c56e	-0.08875547
89	0xbd8272c7	-0.06369548
90	0x3dbc6d32	0.09200515
91	0xbdb964f0	-0.090524554
92	0xbcadfa2e	-0.021237459
93	0xbd83c9db	-0.06434985
94	0xbcb5e8f5	-0.02220581
95	0x3b98055a	0.00463931
96	0xbe07e5c4	-0.13271242
97	0xbdca7cbc	-0.098870724
98	0xbdb1dfb6	-0.086852476
99	0x3d7a042e	0.061039142
100	0x3dcb11fb	0.09915539
101	0x3e0175fd	0.12642665
102	0xbe201209	-0.1563188
103	0xbc922e42	-0.017844323
104	0x3db96983	0.09053328
105	0xbd10848c	-0.035282657
106	0x3e2eab06	0.17057428
107	0xbd2fb8b8	-0.04290077
108	0x3d4f9ae3	0.05068482
109	0x3e02a51c	0.12758297
110	0xbd0458b7	-0.032311168
111	0x3da0946d	0.0784081
112	0xbddb5dc8	-0.10711247
113	0x3cba3b3a	0.02273332
114	0xbd48752f	-0.04893988
115	0x3db719a8	0.089404404
116	0x3e122abb	0.14274113
117	0x3da146b1	0.078748114
118	0x3d3f9964	0.046777144
119	0x3d0b7d04	0.03405477
120	0x3c81d405	0.01584817
121	0x3c38fdb0	0.011290953
122	0xbdcb629d	-0.09930918
123	0x3d87f91c	0.06639311
124	0xbd1ed2e0	-0.038775325
125	0x3d28493d	0.04108547
126	0xbc90a367	-0.017656041
127	0x3dcf6e33	0.10128441
128	0x3cd62c81	0.026144268
129	0x3ccba88c	0.024860643
130	0xbca8bd2f	-0.020598022
131	0x3a710dbc	0.0009195467
132	0x3d911bdd	0.070853926
133	0x3bf877ff	0.007582664
134	0x3d2243e3	0.039615523
135	0xbc37e0d1	-0.011223034
136	0xbd68a7bd	-0.056800593
137	0x3d8faef0	0.070157886
138	0xbde1575a	-0.11002989
139	0xbd0ca5ca	-0.034337796
140	0x3dcb951c	0.0994055
141	0x3e28ba9c	0.16477436
142	0xbd20c349	-0.03924874
143	0x3c8bd81c	0.017070822
144	0x3dc1ae3a	0.09457059
145	0xbd8308f2	-0.063981906
146	0x3db2f7dc	0.08738682
147	0xbd1fc64c	-0.03900747
148	0x3e2ca5eb	0.16860168
149	0x3d2b2be7	0.041789915
150	0xbce79a31	-0.028271766
151	0xbdd3a95d	-0.10335038
152	0xbd1201c5	-0.03564622
153	0x3ca2a968	0.01985617
154	0x3da8ca90	0.08241761
155	0xbdaf4d64	-0.08559683
156	0xbe129c0d	-0.14317341
157	0x3e169d5a	0.14708462
158	0xbdfc3e05	-0.12316517
159	0x3db319f3	0.08745184
160	0xbcd2bb46	-0.025724065
161	0xbdb488b7	-0.08815139
162	0x3ccdcb51	0.025121363
163	0xbdcbac6f	-0.099449985
164	0x3ddc7cab	0.10765966
165	0xbbf09b51	-0.007342734
166	0x3e120e62	0.14263299
167	0xbe1d2c64	-0.15348965
168	0xbe04f1aa	-0.12982813
169	0xba2d327e	-0.000660695
170	0xbca248b2	-0.019810054
171	0xbccd0589	-0.025027053
172	0x3d8ced55	0.06881205
173	0x3d1a7447	0.037708547
174	0xbd9be3ef	-0.07611834
175	0x3cbd9854	0.023143925
176	0xbd450ad4	-0.04810603
177	0xbd024b3f	-0.03181004
178	0x3d238053	0.0399173
179	0xbdfc8a13	-0.12331023
180	0xbdcbb3ea	-0.09946425
181	0x3cd95b0e	0.026532676
182	0xbc9c559b	-0.019083789
183	0x3bbb571b	0.005717171
184	0x3e032c80	0.12809944
185	0xbd8335b1	-0.06406725
186	0xbe001bdb	-0.12510626
187	0x3e47cdde	0.19512126
188	0xbd4910db	-0.04908834
189	0xbdd4533e	-0.1036744
190	0x3d5a682b	0.053322
191	0x3deb43fa	0.11487575
192	0x3d833914	0.06407371
193	0xbb9dc72c	-0.004815003
194	0xbcb1b97f	-0.021694897
195	0x3db5230c	0.08844575
196	0x3dbdd09e	0.09268306
197	0x3d992e8c	0.07479581
198	0x3d60ee20	0.054914594
199	0x3caa1e6c	0.02076646
200	0xbd2311c3	-0.03981186
201	0x3d8bf654	0.06834093
202	0x3e11cb08	0.14237607
203	0x3ca64954	0.020298637
204	0xbdd926b0	-0.10603082
205	0x3defad8b	0.117030226
206	0xbc188f33	-0.009311485
207	0x3d1811f0	0.03712648
208	0x3d1da924	0.038491383
209	0x3d65a6f7	0.056067433
210	0xbd7f0420	-0.062259793
211	0x3cba1585	0.02271534
212	0x3d992245	0.074772395
213	0x3d8621ba	0.065494016
214	0xbdf5ebef	-0.120078914
215	0xbd9a8506	-0.075449035
216	0x3df4ed26	0.11959295
217	0x3d478b24	0.04871668
218	0xbd2f9b10	-0.04287249
219	0xbdaf9283	-0.08572867
220	0xbdfd1288	-0.1235705
221	0x3d529ecf	0.051420983
222	0x3e42ae66	0.1901184
223	0xbd83b792	-0.06431498
224	0xbdb9d305	-0.09073452
225	0x3d9809e3	0.07423761
226	0xbb5e49e8	-0.0033918563
227	0x3cec14bd	0.028818483
228	0xbe1f5618	-0.15560186
229	0x3cb5389e	0.022121724
230	0x3d8f6e54	0.07003465
231	0x3c0b65f6	0.008508196
232	0x3bd7e784	0.006588878
233	0xbd97713e	-0.07394646
234	0xbd96ea1d	-0.07368872
235	0x3da9cd08	0.0829106
236	0x3df7bc47	0.12096458
237	0x3e2b2f81	0.1671734
238	0x3d9213b8	0.07132667
239	0x3ce3f397	0.027826114
240	0x3dc79b71	0.09746445
241	0x3e03bdb0	0.12865329
242	0x3b94dae7	0.0045426968
243	0xbc6dc4d7	-0.014512262
244	0xbd45a879	-0.04825637
245	0x3d09aebc	0.033613905
246	0x3ca748a2	0.020420376
247	0x3dd18cd4	0.10231939
248	0x3e4948f1	0.19656731
249	0xbd9952b6	-0.07486479
250	0x3c7e49b0	0.015520498
251	0x3df07818	0.11741656
252	0xbeaed09a	-0.34143525
253	0x3d932179	0.07184119
254	0xbe0f9ed0	-0.14025426
255	0x3d90f59f	0.070780985
