pytorch_LeNet-5/model_no_16/conv3_bias.npy (npy, 608 bytes, 1 tensors)

array f4 [120]
00000000: 0055 1d3e 14c8 e03d 96fc c0bc 72c0 19bd
00000010: 7b7c 3cbc 668b 0c3e d5c6 1f3a 5a15 d63d
00000020: 5dde 8b3d c8cf 38bd d2fe 123e 2d79 55bd
00000030: 3f28 c3bc 00ea 8ebc e329 03bc 5245 1cbd
00000040: 315c e2bc 10dc cc3d b249 17bd bac0 863d
00000050: 1dd4 0c3e e6f6 ed3d be8c c63d 7328 dabc
00000060: 0e14 9e3c c53c 9bbc 83ea 82bc fe94 ba3d
00000070: 06a0 fd3d 982b f3bc 96ac 993d eae3 0fbd
00000080: d704 ad3d 37d0 dfbc cec5 0f3d 5fda 3cbd
00000090: 6c4d ccbd 8f98 f8bc f3e4 f0bc b5df e0bb
000000a0: 2edb 1abd 00a8 83bd f987 cfbc 33ff 6dbd
000000b0: 5066 c93d 0142 07bd e9b5 c63b e1a1 adbb
000000c0: d666 bfbc 2692 9a3b ec02 cabc 7c57 fb3c
000000d0: f461 22bd 4e2e 093e 9f02 353e 50e9 ecbb
000000e0: 9125 d4bc d4e9 cdbc 94ec ac3d 95d7 66bc
000000f0: b3eb f53d dc38 35bc 17a9 04bc 5e16 4cbd
00000100: bcf6 923d b512 14bd 84bc f3bc 1db2 81bd
00000110: ffc4 b33d 181c 0d3d cbe4 083e ce90 8f3d
00000120: 04c8 833e 4763 88bd 679d d93d 873d 0fbd
00000130: 3f76 b33c 66ba 04bd 8889 093e a818 0c3d
00000140: 323c 033e 2153 74bd 3b1d 1ebd 1820 c3bc
00000150: 9359 e9bc 2a4f d9bc c0e0 5c3d 0a19 af3a
00000160: 438c 56bd 4fca 01bd c98d 353b 8614 f13d
00000170: 5143 b33d 9cc9 28bd 2575 f2bc 99ee 2abd
00000180: 8230 5abd 4257 103d ead6 9bbc 4171 8d3d
00000190: 878a d93d e00c b83d c0b0 0c3e 84f4 16bd
000001a0: 5f08 49bd b7e3 cabb 08e4 293b 2ccf f2bc
000001b0: 27b0 cfbc 8bf1 4a3d cd00 073e 95ed 6fbc
000001c0: f220 33bd 9001 9f3d b100 8bbc 9513 7fbc
000001d0: 189d 91bd ea19 ab3d 2fdd 5fbd f010 dbbc
0.15364456 0.10975662 -0.023557942 -0.037537046 -0.011504288 0.13725051 0.0006094997 0.10453291
0.06829522 -0.04512003 0.14355019 -0.052117515 -0.023822902 -0.017445564 -0.008005592 -0.038152047
-0.02763185 0.10002911 -0.036935516 0.065797284 0.1375279 0.11619358 0.09694813 -0.026630616
0.019296672 -0.018949876 -0.015980965 0.09110449 0.12384038 -0.029683873 0.07503621 -0.035129465
0.08448189 -0.027320964 0.03510075 -0.046106692 -0.099757046 -0.030346183 -0.029406046 -0.0068626055
-0.037806682 -0.06428528 -0.025333392 -0.058104705 0.09833968 -0.03302193 0.006064166 -0.0052988385
-0.023364466 0.0047171293 -0.024659596 0.030681364 -0.039644197 0.1339657 0.17676781 -0.0072299615
-0.02589682 -0.025135912 0.08443561 -0.014089485 0.12007847 -0.01106092 -0.008096955 -0.04982602
0.07175967 -0.036150653 -0.029752977 -0.063328005 0.087778084 0.03445062 0.13368528 0.07010041
0.25738537 -0.06659561 0.10625725 -0.034970786 0.02190697 -0.032404326 0.1343137 0.0342032
0.12815931 -0.05964959 -0.038602095 -0.023819014 -0.028485095 -0.026527006 0.053925276 0.0013358903
-0.052379858 -0.031687077 0.0027702919 0.11771493 0.08753074 -0.041207895 -0.029596874 -0.04173145
-0.053268917 0.035239466 -0.019023377 0.06906367 0.10622125 0.08986831 0.137393 -0.036854282
-0.04908025 -0.0061916965 0.002592327 -0.029639803 -0.02535255 0.04954676 0.13183899 -0.014644046
-0.04373259 0.0776397 -0.016968103 -0.015568634 -0.071100414 0.08354552 -0.054654296 -0.026741475
