pytorch_LeNet5/parameters_standard/fc3_weight.npy (npy, 3488 bytes, 1 tensors)

array f4 [10, 84]
00000000: 8a7c 32bc 1079 2dbe f55e 88be 3881 81bd
00000010: ee71 323e f37c 193e d639 7c3e c683 80be
00000020: 75de 49be e2a0 4a3e 40f6 46bd a6b0 afbd
00000030: 78c2 adbe ecc1 d13d b071 4b3d eb1c 953d
00000040: 5070 453e 8b6f 05be 9c53 e7bd 814a 5b3e
00000050: c1ee a43d f4f2 6f3e 081e c5bd be51 16be
00000060: 9fff 6e3e 4e1c 99be f246 2a3e e4a5 ae3c
00000070: ad12 b0be 9fef a5bc 9243 f7bd babd 633e
00000080: 4d3d 8cbe f499 3fbe 93ab 3d3e 953f a6be
00000090: 94d4 d1bd 25fa 643e 7a45 99be ebce 543e
000000a0: 7b7f 43be 32aa 0cbd fd67 173e 3eea 66be
000000b0: f41a 33bd d90c 44be 5217 f73d 774a bcbe
000000c0: 820e 1ebe ba3f 38be 965d 323e 79d7 8bbe
000000d0: 085b 81be 16c5 cdbc 9462 373e 2222 89be
000000e0: f8e4 7bbe 132b c03d ce86 85be 6a5e 9ebe
000000f0: 8302 f3bd c7d7 71be 1938 81be 22fd 933d
00000100: bbdf 2abe 41e1 85be 4c86 90be 4a7a 37be
00000110: 1d11 873e d328 9bbe 8aac 823e 6b9c 81be
00000120: 2405 843e 9797 46be 75eb 7f3e 856d 9bbe
00000130: 7e70 933e 3076 8abe 265b 2ebe 296d 273e
00000140: 0e14 8cbe 0705 8abe 9611 87be 4826 5dbe
00000150: b911 8dbe 502a 303e faf8 743e 2e28 793e
00000160: 36ce 04be 80ba 8ebe b686 21be cc9d 4cbe
00000170: 8b41 1abe e010 efbc c17b 833e e09b 243e
00000180: 443a f9bd d760 5ebe 50f5 82be ed0d 96be
00000190: 8439 683e 2405 693e 3d1b cebd 759a adbe
000001a0: 98d0 12be f402 bf3c 554c 62be f2c7 86be
000001b0: 06df 9ebe f04e 3d3d 10b5 8a3d bb68 89be
000001c0: 49f1 2e3e b504 1fbe 08e7 09be 53f7 7c3e
000001d0: 04f9 7d3e 54cd ffbd 798c 5abe 498b 00be
000001e0: 69d0 2abd ca8b 433e 4bd7 37be a8ff 38bd
000001f0: 5466 4c3e 1a32 7abe f562 08be 9258 a5bd
00000200: 2598 04bd 08bd d03d bd75 72be 1bb0 abbc
00000210: 26ce eabd 797b 43be da75 7f3e 03e4 89be
00000220: 0ab1 6fbe 28b1 a6bd 2a6b 70be bd98 6a3e
00000230: afb9 26be 6f51 a7be 934f 7f3e 5314 2d3e
00000240: b845 eabd 35c6 043e 770c b0bd e1dd d4bc
00000250: 9f5b 89be e3de 1cbe 0834 723e 96b6 75be
00000260: 066b eb3d 5efd bc3d 5b91 b4be b2aa 3cbe
00000270: 35f9 433e 99f7 1ebe 225d 3ebd 0b0d f1bd
00000280: b81d afbe 448e 70be e30a 88be 90c8 c73c
00000290: a369 243e e137 703e 86e0 1bbe 5529 533e
000002a0: 5675 963e 4808 73be 88fe 55bc decf 96bc
000002b0: 4467 fabd 5547 f2bd 1e80 80be 8a81 d7bd
000002c0: 03a5 a03d 6f0c 863e 22e1 0d3c 3a2e 54bc
000002d0: 9240 573e 4b42 21be 5b3b e9bc ef91 7ebe
000002e0: 3fc8 87be 2f4a 49be 3299 75be 61ee 05ba
000002f0: 3243 093e fb33 6abe 45fb 813d dd9b 9dbe
00000300: 75df 4b3e 11f5 aabe fbb3 47be 2f47 b23c
00000310: da75 2cbe 6c8b 47be 1657 aebe 4143 223e
00000320: d4e4 8dbd 641e 673e cb04 86be 4f6e 7f3e
00000330: af46 8a3c 1bc9 47be 1f3d 763e 60e1 83be
00000340: ae9a 263e 022a 38be 4ab6 643e 2a81 b9be
00000350: e78d 743e 4b9d 9ebe a161 89be 94f7 51be
00000360: dcff 073e b43a 803e 79d4 65be 1755 823e
00000370: 63fe c1bd 5f46 debd 0f9d 57be 4a43 85be
00000380: 6bae e9bd f094 bdbb f49b 043d d95a 50be
00000390: 4dc5 0abe 0c0b 763e e7e7 b1be 3471 653e
000003a0: 01be 9abe 3502 84be c5ef 1c3e 5837 433d
000003b0: 8552 b1bc 3faf 63bd 49f4 2c3e a955 5dbe
000003c0: 2ee1 5cbe e1d3 c2bd a657 d9be af50 8cbe
000003d0: a61d a93b 2c92 39be 4712 5ebe 2731 233e
000003e0: f629 7bbe b730 523d 8da1 6f3e 9d70 86be
000003f0: f5d6 40be bbb1 93be 1b4f 28be 8ee9 b23d
-0.01089395 -0.16940713 -0.26634946 -0.06323475 0.17426273 0.1498907 0.24631438 -0.25100535
-0.19713767 0.19787934 -0.048574686 -0.08578615 -0.3393743 0.10242066 0.049668968 0.07280906
0.19281125 -0.13030832 -0.11295244 0.2141514 0.08053351 0.23432523 -0.09624869 -0.1467962
0.23339699 -0.29904407 0.16628626 0.021319337 -0.34389248 -0.020255862 -0.12073435 0.22240344
-0.2739052 -0.18711072 0.18522482 -0.32470384 -0.10245624 0.22361048 -0.2993582 0.20782058
-0.19091599 -0.034342 0.14785762 -0.22550294 -0.043726876 -0.19145526 0.12064995 -0.36775562
-0.15435222 -0.1799306 0.17418513 -0.2731283 -0.25264764 -0.025118392 0.17908698 -0.26783854
-0.24599063 0.09383216 -0.2607941 -0.30931407 -0.118657134 -0.23617469 -0.25238112 0.072260156
-0.16686909 -0.26148418 -0.2822746 -0.17917743 0.26380244 -0.30304584 0.25522262 -0.2531465
0.25785172 -0.19393764 0.24992163 -0.30356994 0.28796762 -0.27043295 -0.17026958 0.16350235
-0.2735905 -0.2695696 -0.26380605 -0.21596634 -0.27552584 0.17203641 0.23923102 0.24331734
-0.12969288 -0.27876663 -0.15774044 -0.1998207 -0.15064065 -0.029182851 0.25680354 0.16075087
-0.121693164 -0.21716629 -0.25577784 -0.293075 0.2267819 0.22755867 -0.10063789 -0.33906904
-0.14337385 0.023316838 -0.22099431 -0.2632442 -0.31029528 0.04621786 0.06772816 -0.26837716
0.1708423 -0.1552914 -0.13467038 0.24703722 0.24802023 -0.12490335 -0.21342649 -0.12553133
-0.04170266 0.19096294 -0.17953221 -0.045165688 0.1996091 -0.24433175 -0.13318999 -0.08073534
-0.03237166 0.10192305 -0.23677726 -0.020957997 -0.11465101 -0.1909007 0.249473 -0.26931772
-0.23407379 -0.081392586 -0.2347838 0.22909828 -0.1628177 -0.32679316 0.24932699 0.16902284
-0.11439079 0.12966235 -0.085961275 -0.025984706 -0.26827714 -0.153194 0.23652661 -0.23995432
0.114950225 0.092280135 -0.35267147 -0.1842449 0.19138034 -0.15524139 -0.046475537 -0.11770066
-0.3420236 -0.2349177 -0.26570806 0.024387628 0.16055922 0.23458816 -0.15222368 0.20621236
0.29386395 -0.23733628 -0.013061173 -0.018409666 -0.122267276 -0.11830012 -0.25097746 -0.105227545
0.078439735 0.2618136 0.008659633 -0.012950474 0.21020725 -0.15747945 -0.028470686 -0.24860357
-0.26519963 -0.19657205 -0.2398422 -0.00051090686 0.13404539 -0.22871391 0.06346754 -0.30782977
0.19909461 -0.33390096 -0.19502251 0.021762459 -0.16841832 -0.19486779 -0.34050816 0.15845968
-0.06928411 0.22570187 -0.26175532 0.24944423 0.016879408 -0.1951031 0.24046753 -0.25757885
0.16269943 -0.17984775 0.22335163 -0.36231357 0.23882256 -0.3097938 -0.26832297 -0.205046
0.13281196 0.25044787 -0.22444333 0.25455543 -0.094723485 -0.10853266 -0.21056007 -0.260279
-0.11410221 -0.005785577 0.03237529 -0.20347156 -0.13551827 0.24027652 -0.3474724 0.22406465
-0.30223086 -0.25782934 0.1532584 0.0476602 -0.021645794 -0.05558705 0.16890062 -0.21614708
-0.21570274 -0.09513069 -0.42449683 -0.27405307 0.005161005 -0.18122166 -0.2168666 0.15936719
-0.24527726 0.05131599 0.2340147 -0.26257792 -0.18832 -0.28846535 -0.16436426 0.08735953
