pytorch_LeNet5/lenet_weights_epoch(5)/conv2_weight.npy (npy, 9728 bytes, 1 tensors)

array f4 [16, 6, 5, 5]
00000000: 5b97 b03c da78 433d 2c05 d7bd 64bd 7fba
00000010: fcab 6f3d 8206 393d ae9b c83c 413e 53bd
00000020: 03dd 2a3d 9fd2 77bd e4b3 9cbb 8420 f3bd
00000030: 5bd4 903d 9bc0 053c 9594 bcbd a2f6 393d
00000040: 47bc 78bd f0c0 57bd f2b5 2a3d 4ee9 b9bc
00000050: 3048 e43d 6b3c 9b3d ac77 83bd 2f35 433d
00000060: 48d5 6cba 1781 59bc 162a 2f3c cf3c e2bd
00000070: e3a0 8ebd e200 823d 1db2 a4bc f68f dbbd
00000080: c765 82bd 5455 6dbd 3dfd 653b be8d 7fbd
00000090: 1702 89bc 9429 38bd dd8a d03c a4c8 c93b
000000a0: 4a1e 40ba 9805 5cbd 58db bf3d bd4b 90bc
000000b0: db30 e1bb 2ff6 a0bd fbda 9dbb 8036 95bc
000000c0: 4042 073d f4a5 df3c 86b2 ffbc 550e babc
000000d0: 956d d43d bc53 e63d 15e6 4bbc 8214 24bc
000000e0: af0f 9a3d 965e 0c3d fec8 df3d 3420 d23d
000000f0: 8ab7 44bc 33eb f53c c72d 873d f907 f83d
00000100: e9ed ce3d 642e 70bd da07 02be 8b95 42be
00000110: 446e 3b3c 22ce 3c3c 670a 88bd 4f19 04be
00000120: 865c b2bd 16a4 2cbe 30d7 07be f12f 7cbd
00000130: 5929 ee3c 22ec aa3b ddfb 10bd a913 5a3d
00000140: 4e67 f4bc 64eb 86bc df69 05be 3e3c 223d
00000150: a6cb 023d 702e e73c a3b9 dc3c 2069 0bbd
00000160: 8215 f13c b865 56bc 59dc bb3c e83d 6e3d
00000170: f3d8 dd3d e7c1 ea3c 1713 f6bc be65 9f3d
00000180: ff30 d63d 5141 a93d abb8 1c3d c3e1 833d
00000190: 8ad5 4b3d 7fab d83c dce8 80bc 15b3 913d
000001a0: 4350 b1bb 0893 61bd 1c02 3fbd b0ea ef3d
000001b0: b83d fc3d 8853 a23d 5b58 8cbd 9d1e 6abd
000001c0: ff31 f53c c343 a23b 872a 033e af58 2e3c
000001d0: b2e6 98bd ed89 a6bd 2328 42bc bd7c 04bd
000001e0: bedd b5bc 956b 46bd 8ba4 c7bb c8b9 85bd
000001f0: 7623 d2bd 3117 333d b536 b1bc 11db 3d3d
00000200: 7337 21bd 289d efbc 7a3d ee3c 15a9 2f3d
00000210: cae4 313d a17b b7bc 4f45 1d3d 3ddf 963d
00000220: c058 8c3c 72e3 50bc 6537 123d fa09 78bc
00000230: 7e22 693d d1e0 dbbd 96cf 17bc b15c 53bb
00000240: 4d42 8abd 598f d13d 1a33 783d 1f2c ebbc
00000250: 85b1 e0bc 4f96 e5bd 8c1f cf3b 4c55 ba3c
00000260: 6d3e 893d d977 983d 5051 3c3d 18b5 68bd
00000270: 5158 9e3c df12 6f3c 5edd d63d abb4 c43d
00000280: 2572 09bd 943e e5bd cf44 abbd 1731 a6bd
00000290: 6d80 f93c 22d0 b23b 6a76 d03c 0328 f7bc
000002a0: 36e4 19bd 4d55 073d d182 97bd 54a4 003d
000002b0: 87e9 aabd d067 a5bd b715 f8bd 5248 efbb
000002c0: 1651 fcbc 5ac0 12bb 812a 633d 6cb4 923d
000002d0: 2334 353d 4519 053e fc10 d93d 7e9d ccbc
000002e0: b7b2 30bd 365a 14bd 4376 a93c 6299 fa3a
000002f0: fb6a d5bd fb01 d1bd cfb5 2dbd 8d76 7cbd
00000300: 615d 8ebd 82c2 c5bd 05d2 b4bd 153c d5bc
00000310: 5824 40bd ad80 39bd 058e 1cbc 3519 303d
00000320: fd9d 6ebb 63e6 583d 24a8 a63b 64b3 2c3d
00000330: 5de7 6cbc bca3 713d 48a3 023c f63e 033d
00000340: 8840 473d b5a1 e7bb f35b 83bd 46a0 6b3d
00000350: ca7b 8d3d a2c4 a53c 4d0b e4bc 96be 373c
00000360: 1f94 1d3d 49aa ecbd 3a80 acbd e9a3 03bd
00000370: b77f 813d ff32 cd3c 9eef 8b3d baa5 e73d
00000380: 8448 833d 06a5 98bc 1d1c 44bd f497 153d
00000390: 976f 883c e3d3 20be a679 b6bd 8ae9 333d
000003a0: c9ad 8fbd c3c1 1abe de32 1fbe e74f bebd
000003b0: 8ac9 773d 52a1 2a3d 0165 693d 46bd 183d
000003c0: c0af d43d 89bc 913d 77d4 063d d1c6 973d
000003d0: b80b e03d 4afd c73d c5ea 063e b17d 103e
000003e0: c74f 023e 7efa 383e 4db9 c0bc 8f56 333d
000003f0: 039d a43d bc77 5fbc 02b3 82bd aa4c db3c
0.021556547 0.047722675 -0.10499033 -0.00097556994 0.058513626 0.045172222 0.024488296 -0.05157304
0.04171468 -0.0605036 -0.004782187 -0.11871436 0.070717536 0.0081635965 -0.09208027 0.045401223
-0.06072643 -0.052674234 0.041677423 -0.022694256 0.11146581 0.07579883 -0.0641931 0.04765814
-0.0009034467 -0.013275406 0.010691186 -0.110467546 -0.069642805 0.06347825 -0.020104462 -0.10720818
-0.06367069 -0.057942703 0.0035093569 -0.062391035 -0.01672463 -0.044961527 0.02545684 0.0061579514
-0.0007328732 -0.053716272 0.093680084 -0.01761424 -0.006872279 -0.07859456 -0.0048173643 -0.018214464
0.033022165 0.027300812 -0.031213056 -0.022711912 0.103724636 0.1124644 -0.012444993 -0.010014655
0.07522523 0.03426989 0.10927008 0.102600485 -0.01200665 0.030019378 0.06600528 0.12110896
0.101039715 -0.05863799 -0.12698308 -0.19002359 0.011439864 0.011523755 -0.06642609 -0.1290028
-0.08709054 -0.16859469 -0.13265681 -0.061569158 0.02907245 0.0052161375 -0.035396446 0.053241406
-0.029834416 -0.016469665 -0.13028668 0.039608233 0.031932496 0.028220385 0.026943987 -0.034035802
0.029429201 -0.013085775 0.022932218 0.058164507 0.108323954 0.028656913 -0.0300384 0.07783078
0.10458564 0.08264411 0.03826205 0.06439545 0.049764194 0.026448963 -0.015736036 0.07114235
-0.0054111793 -0.05507186 -0.04663287 0.11714685 0.123164594 0.079260886 -0.0685279 -0.0571581
0.029931067 0.0049519255 0.12809192 0.010641261 -0.07465877 -0.08131776 -0.01185039 -0.032345522
-0.022200461 -0.048442442 -0.006092613 -0.065295756 -0.1026067 0.04372329 -0.021632532 0.046351496
-0.03935952 -0.029249743 0.029082049 0.04288586 0.04343108 -0.022397818 0.038396176 0.07366798
0.017132163 -0.01274954 0.03569736 -0.015139097 0.05691766 -0.1073624 -0.009265801 -0.0032251293
-0.06750927 0.102324195 0.06059561 -0.028707562 -0.027428398 -0.1121031 0.0063208994 0.02274575
0.0670136 0.07444734 0.045975983 -0.05681333 0.019329222 0.014591902 0.10491441 0.09604772
-0.033556122 -0.111935765 -0.083627336 -0.08114832 0.030456746 0.0054569403 0.02544709 -0.030170446
-0.037571155 0.033040334 -0.07397998 0.031406716 -0.08345323 -0.08076441 -0.12113517 -0.0073023224
-0.030800384 -0.0022392482 0.055460457 0.07163319 0.044239175 0.12997921 0.10598943 -0.024977442
-0.043139186 -0.036218844 0.020686274 0.0019119198 -0.104207955 -0.10205456 -0.042409714 -0.061636496
-0.06951404 -0.0965624 -0.088291205 -0.026029626 -0.04690966 -0.04528873 -0.0095553445 0.04299279
-0.0036410086 0.05295409 0.005085962 0.042163268 -0.014459458 0.05899404 0.0079735 0.032042466
0.048645526 -0.0070688375 -0.06414022 0.057525896 0.069083765 0.020235363 -0.02783742 0.011214873
0.038471337 -0.11555917 -0.08422895 -0.03213874 0.06323188 0.02504873 0.06832813 0.11310907
0.06410316 -0.018633377 -0.047878373 0.036521867 0.016654773 -0.15705828 -0.08909921 0.043923892
-0.07015569 -0.15112977 -0.15546748 -0.09292584 0.060494937 0.041657753 0.05698109 0.03728988
0.10385084 0.07116038 0.032917466 0.07410968 0.10939735 0.09765108 0.13175495 0.14110447
0.12725745 0.18064305 -0.023525858 0.04378372 0.0803776 -0.013639387 -0.06381799 0.026769955
