pytorch_LeNet5/lenet_weights_epoch(5)/conv3_weight.npy (npy, 192128 bytes, 1 tensors)

array f4 [120, 16, 5, 5]
0	0xbbed6c77	-0.007245596
1	0x3d501e0b	0.0508099
2	0xbd61a65b	-0.05509029
3	0xbd5070f4	-0.05088897
4	0xbc28b740	-0.010297596
5	0xbd43b914	-0.047783926
6	0x3c3b4c1c	0.01143172
7	0x3bc8b8d1	0.0061255475
8	0xbd2e3be2	-0.042537577
9	0xbd1bab4a	-0.03800515
10	0x3d3a7faa	0.045531906
11	0xbd4c2127	-0.049836304
12	0x3d854b82	0.065085426
13	0x3c5f64b2	0.0136348475
14	0x3d1e0b68	0.038585097
15	0xbbab37bc	-0.00522515
16	0xbd0f05f7	-0.034917798
17	0xbd36cdb0	-0.044629753
18	0x3b7f9d84	0.0039003799
19	0x3cedbb4f	0.02901998
20	0xbd96b35d	-0.073584296
21	0xbe172fee	-0.14764377
22	0xbd813358	-0.06308621
23	0xbd7f6135	-0.062348563
24	0xbc698d37	-0.01425486
25	0x3da24668	0.07923585
26	0x3c9bfdd6	0.019041937
27	0x3d9e8f1e	0.07742141
28	0xbcf1f1ef	-0.029534308
29	0x3cc4d555	0.024027506
30	0x3cb749c5	0.022374043
31	0x3cea2815	0.028583566
32	0x3d64000f	0.05566412
33	0x3d8aa2d6	0.0676934
34	0xbd9b603c	-0.075867146
35	0xbbd85f3c	-0.0066031497
36	0xbd4cc87f	-0.049995895
37	0x3d8c69ad	0.068560936
38	0x3d41dec5	0.04733159
39	0xbb3f66c6	-0.0029205545
40	0xbdc2bc3b	-0.09508558
41	0x3c79ec7f	0.015254139
42	0xbd6d0ce4	-0.05787362
43	0x3d9bd7e4	0.07609537
44	0x3c12ca7b	0.008959408
45	0x3c4dd207	0.012562281
46	0x3c2d5a84	0.010580663
47	0x3dd284fb	0.1027927
48	0x3e053c62	0.13011315
49	0x3d76d18c	0.060258433
50	0xbbdf9da7	-0.0068242135
51	0x3d801df1	0.06255711
52	0xbd81b139	-0.06332631
53	0xbc731b8d	-0.014838112
54	0xbd338b2a	-0.04383389
55	0xbd36e317	-0.044650164
56	0x3c44fe75	0.012023558
57	0xbcaaccda	-0.020849634
58	0xbdb69563	-0.08915212
59	0xbd887501	-0.06662942
60	0xbd589eff	-0.052886005
61	0xbdc6d868	-0.09709245
62	0xbd697c80	-0.057003498
63	0xbd4c200f	-0.04983526
64	0xbd48254d	-0.048863698
65	0xbd4d8147	-0.050172117
66	0xbd0f3293	-0.03496034
67	0x3d7c4d91	0.06159741
68	0xbcbdc3af	-0.023164598
69	0xbd40e4f9	-0.047093365
70	0xbdbfa5ab	-0.093577705
71	0xbc05e79f	-0.008172899
72	0xbd8d46cb	-0.06898268
73	0xbdb7ea62	-0.08980252
74	0x3cbd469d	0.02310496
75	0xbd075f47	-0.033049848
76	0x3daa1edd	0.08306668
77	0x3c2582b8	0.010101967
78	0xbc23570c	-0.009969484
79	0xbd97b77a	-0.07408042
80	0xbcb03118	-0.021507785
81	0x3c77d575	0.015126576
82	0x3d39e509	0.04538444
83	0x3c59c06b	0.013290505
84	0x3dca54a8	0.09879428
85	0x3c196c50	0.009364203
86	0x3d1a28b6	0.03763648
87	0xbb7197d0	-0.003686417
88	0xbd5b96d1	-0.053610627
89	0x3c4a1a76	0.01233541
90	0x3af2e38e	0.0018530951
91	0x3c8a47dc	0.016879968
92	0x39151594	0.00014217786
93	0xbd924f02	-0.07143976
94	0x3d3fa4df	0.046788093
95	0xbc4f31df	-0.012646168
96	0x3c0f61e7	0.008751369
97	0xbdeca2bb	-0.11554476
98	0xbcab5c71	-0.020918103
99	0xbcc614d0	-0.024179846
100	0xbd15be85	-0.036558647
101	0x3d1c3853	0.038139652
102	0x3c8741d0	0.016510874
103	0x3db3e58c	0.08784017
104	0xbd2ae467	-0.041721728
105	0xbd9ec97f	-0.07753276
106	0x3d515bcf	0.051112946
107	0x3d841884	0.064499885
108	0x3d986773	0.074416064
109	0x3cc92c33	0.024557209
110	0xbdb55fa7	-0.08856135
111	0xbb0be9e4	-0.0021349126
112	0xbca2d160	-0.019875228
113	0x3b9ebef4	0.0048445407
114	0x3d89b664	0.067242414
115	0xbe0a0242	-0.13477424
116	0xbd575a5a	-0.0525764
117	0x3d95a395	0.073065914
118	0x3d274f75	0.04084726
119	0x3d0fcfb5	0.035110194
120	0x3d4e1a18	0.050317854
121	0x3dbe1364	0.09281042
122	0x3d135a5d	0.03597485
123	0x3da2745c	0.0793235
124	0x3b87e53e	0.004147201
125	0x3d301474	0.042988256
126	0xbb85658d	-0.0040709437
127	0x3cd6fe4d	0.026244307
128	0x3d2a5253	0.041582417
129	0xbc14fef2	-0.009093987
130	0xbd951a92	-0.072804585
131	0xbc742849	-0.014902183
132	0xbcb7b26b	-0.022423944
133	0xbcc3142f	-0.023813335
134	0xbd3d6c33	-0.046245765
135	0xbb3fa3cc	-0.0029241918
136	0x3d2894b9	0.041157458
137	0xbd1991ef	-0.03749269
138	0xbd8382b4	-0.06421414
139	0x3c2a148e	0.010380877
140	0x3da27a24	0.07933453
141	0xbc4c06b0	-0.012452766
142	0xbc979edf	-0.018508373
143	0xb9a773f0	-0.00031939102
144	0x3df3d07c	0.119049996
145	0x3d8bd34f	0.06827413
146	0xbd6a9184	-0.05726768
147	0xbe0de64f	-0.13857387
148	0xbbbcdbe7	-0.005763519
149	0xbce38741	-0.027774455
150	0xb9c6ac31	-0.00037893796
151	0x3c9d3769	0.01919146
152	0x3d40a043	0.047027837
153	0x3e05d5b3	0.13069801
154	0xbbcdf366	-0.006285119
155	0x3d31e50d	0.04343133
156	0x3da7299d	0.08162234
157	0x3d43e9ab	0.047830265
158	0xbcf5e071	-0.030014249
159	0xbd39d401	-0.0453682
160	0x3d6a582d	0.057212997
161	0x3d2d1c41	0.042263273
162	0xbca17720	-0.019710124
163	0xbd091409	-0.033466373
164	0x3bc4641d	0.0059933797
165	0x3d1842f0	0.03717321
166	0xbd437c79	-0.04772613
167	0xbd85652e	-0.06513439
168	0xbdec4dc7	-0.11538272
169	0xbd74f21e	-0.059801213
170	0xbc207c2d	-0.009795231
171	0xbda879f2	-0.08226384
172	0xbdb9159b	-0.09037324
173	0xbdd2fab4	-0.10301724
174	0x3c910f0e	0.017707374
175	0xbd66478e	-0.056220584
176	0x3d309064	0.04310645
177	0x3d9fcf9d	0.07803271
178	0x3c98be84	0.018645532
179	0xbcb89e19	-0.022536324
180	0x3cf28141	0.029602649
181	0xbcd5ff65	-0.026122758
182	0x3dbcff13	0.09228339
183	0x3cbf04e5	0.023317764
184	0xbd3fefab	-0.046859425
185	0x3b3d1022	0.0028848727
186	0x3d1a4ade	0.037669055
187	0xbc49c816	-0.012315771
188	0xbda5d71f	-0.08097672
189	0x3c88dd40	0.016707063
190	0x3d936a13	0.071979664
191	0x3dc69100	0.09695625
192	0xbd7406f1	-0.059576932
193	0x3d4f4f70	0.050612867
194	0x3d757020	0.059921384
195	0x3d072fd1	0.033004586
196	0xbc05047f	-0.008118748
197	0xbcbf2523	-0.023333138
198	0xbd983a11	-0.0743295
199	0x3cb7115c	0.022347145
200	0x3cb462c9	0.02201976
201	0x3d399156	0.04530462
202	0x3d909c7b	0.07061096
203	0x3cad5a39	0.021161186
204	0x3bc98c31	0.0061507453
205	0x3d96ad3d	0.07357261
206	0xbd5d8030	-0.054077327
207	0x3c1dfa64	0.009642217
208	0x3d23ba70	0.039972723
209	0xbce3dd8f	-0.027815608
210	0xbd135a0d	-0.03597455
211	0x3d16eede	0.036848895
212	0x3de40348	0.11133438
213	0xbd8c6d1e	-0.0685675
214	0xbd4e4a9f	-0.050364133
215	0xbd667f17	-0.056273546
216	0x3db2deaa	0.08733876
217	0x3d413764	0.047171965
218	0xbd2918a4	-0.041283265
219	0xbd9d0507	-0.076669745
220	0xbcbea22b	-0.023270687
221	0x3e06efca	0.1317741
222	0x3cd6d655	0.026225248
223	0xbdbf8542	-0.09351589
224	0xbd4ef39d	-0.050525296
225	0x3c23d3d7	0.009999237
226	0x3c6f63d6	0.014611205
227	0xbd4e868b	-0.05042128
228	0x3cfb1116	0.030647796
229	0x3c95bb1d	0.0182777
230	0xbe070dff	-0.13188933
231	0xbd7a9efd	-0.06118678
232	0xbd8a13e7	-0.06742077
233	0xbd5f7410	-0.054554045
234	0xbda8e801	-0.08247376
235	0x3aa31add	0.0012443919
236	0x3cb3c473	0.02194426
237	0x3c132a6e	0.008982284
238	0xbca5c0df	-0.02023357
239	0xbce802b1	-0.028321596
240	0x3da16681	0.07880879
241	0x3d9df4d9	0.077127166
242	0x3d326952	0.043557473
243	0x3d82e77d	0.06391809
244	0x3af0c74c	0.0018369942
245	0xbd85c9ef	-0.065326564
246	0xbc637509	-0.013882884
247	0xbd9de6c5	-0.077100314
248	0xbdb03dd4	-0.08605543
249	0xbd0a8700	-0.033820152
250	0x3cea5c5f	0.0286085
251	0x3cd115ce	0.025523093
252	0x3cc83002	0.024436954
253	0x3d495ff9	0.049163792
254	0xbc110de7	-0.008853412
255	0xbd99712b	-0.07492288
