pytorch_LeNet5/lenet_weights_epoch(5)/fc1_bias.npy (npy, 608 bytes, 1 tensors)

array f4 [120]
-0.005785019 -0.009008332 -0.00039674394 -0.010985158 -0.008725416 0.028375844 0.029719835 0.0069860225
-0.04173014 0.022975564 -0.0450324 -0.03035181 -0.0015740425 -0.008041791 -0.012864614 0.05110874
-0.041182205 0.023120029 -0.016309425 0.045220587 0.0030683747 0.025667487 0.015892228 -0.017855493
-0.02045939 0.012334924 -0.0033431065 0.022709178 0.027448181 0.022670887 0.0219413 -0.035468943
0.03677351 -0.041131992 -0.0055110496 -0.03364867 -0.039369415 0.042062342 -0.013837953 0.0008063252
-0.04035632 -0.044211973 0.02904119 -0.024377119 -0.043252364 -0.014794043 -0.007792265 -0.01781627
-0.0048526055 0.035903174 0.02917979 -0.006894547 0.028791452 -0.01799255 0.024748577 -0.020808287
-0.051184114 0.0064508053 -0.011667906 -0.008812089 -0.01975841 -0.010335528 -0.032316796 0.016384672
0.005895725 -0.04609892 -0.031045066 0.033851303 0.0025171977 0.017372314 0.039332535 0.051493403
-0.024945218 0.0111858165 0.015468831 0.04929179 0.030035809 -0.040854454 -0.020418072 -0.032538712
0.020781271 -0.034882057 -0.040737096 -0.009832467 0.010100102 -0.024311936 -0.017597659 -0.02445193
0.0062106163 0.025167834 -0.031246085 0.024808591 0.029694805 -0.020984795 -0.015839536 -0.022424933
-0.014008482 -0.025470292 -0.045488153 -0.037370358 -0.0138091715 -0.016653644 0.048121393 0.0007528084
-0.041750908 -0.017717259 -0.04378675 0.037585545 -0.04202323 -0.044860642 -0.027100258 -0.02382269
-0.044838507 -0.0040361793 0.008479827 -0.039494995 -0.010719443 -0.022653291 -0.00095281407 -0.0042598797
00000000: 4290 bdbb af97 13bc 1202 d0b9 18fb 33bc
00000010: 0cf5 0ebc 7574 e83c 0377 f33c 01eb e43b
00000020: 39ed 2abd 4037 bc3c e573 38bd 5ca4 f8bc
00000030: 1a50 ceba b7c1 03bc 1ac6 52bc 6657 513d
00000040: acae 28bd 3766 bd3c 589b 85bc 3939 393d
00000050: c916 493b 9f44 d23c 6b30 823c af45 92bc
00000060: 739a a7bc 6c18 4a3c 0518 5bbb 9908 ba3c
00000070: 02db e03c 4cb8 b93c 3ebe b33c e247 11bd
00000080: d29f 163d 057a 28bd 0996 b4bb 30d3 09bd
00000090: d341 21bd 9049 2c3d 95b8 62bc 915f 533a
000000a0: ab4c 25bd 9d17 35bd cae7 ed3c 86b2 c7bc
000000b0: 6429 31bd b762 72bc 4256 ffbb 6df3 91bc
000000c0: 9b02 9fbb 350f 133d 740a ef3c a7eb e1bb
000000d0: 0ddc eb3c 1d65 93bc 87bd ca3c 2476 aabc
000000e0: 6fa6 51bd 4761 d33b bf2a 3fbc 9560 10bc
000000f0: 64dc a1bc 5956 29bc 9e5e 04bd 2639 863c
00000100: ed30 c13b 39d2 3cbd 3952 febc aaa7 0a3d
00000110: 92f7 243b 6250 8e3c 271b 213d bfea 523d
00000120: ea59 ccbc b744 373c fb70 7d3c 30e6 493d
00000130: a80d f63c 0057 27bd cd43 a7bc 5047 05bd
00000140: 7c3d aa3c 7de0 0ebd f1db 26bd 5b18 21bc
00000150: e67a 253c d329 c7bc f728 90bc 6a4f c8bc
00000160: 6d82 cb3b c62c ce3c caf7 ffbc 633b cb3c
00000170: 8542 f33c 4ee8 abbc eac1 81bc 7eb4 b7bc
00000180: d583 65bc 13a7 d0bc c951 3abd a911 19bd
00000190: dd3f 62bc 396d 88bc f01a 453d 1e58 453a
000001a0: 0003 2bbd c923 91bc bc59 33bd 4df3 193d
000001b0: 8d20 2cbd cbbf 37bd 5c01 debc cd27 c3bc
000001c0: 95a8 37bd ed41 84bb f9ee 0a3c 81c5 21bd
000001d0: 9aa0 2fbc 6593 b9bc 45c6 79ba 7696 8bbb
