pytorch_LeNet5/lenet_weights_epoch(5)/fc2_bias.npy (npy, 464 bytes, 1 tensors)

array f4 [84]
0	0xbd80beb0	-0.06286371
1	0x3da541e8	0.08069211
2	0xbda72666	-0.08161621
3	0x3d68f157	0.056870785
4	0x3db5713b	0.088594876
5	0xbd9082a4	-0.07056168
6	0x3da74b84	0.081687
7	0xbd422d12	-0.047406264
8	0xbdbe78b9	-0.0930037
9	0x3ca133a4	0.019677944
10	0xbd9b643b	-0.07587477
11	0x3d805b03	0.06267359
12	0x3cb9e7f6	0.022693615
13	0xbd0897dd	-0.033347953
14	0x3d43e319	0.047824
15	0x3da388f0	0.07985103
16	0xbc2676c8	-0.010160156
17	0xbd9d0c3e	-0.07668351
18	0x3d2a993d	0.041650046
19	0x3da540f0	0.080690265
20	0x3ca988d5	0.02069513
21	0xbc60f10d	-0.013729346
22	0xbd2a0b97	-0.04151496
23	0x3d884d6f	0.06655394
24	0xbd5cd509	-0.053914104
25	0x3d571db1	0.05251855
26	0x3d82608a	0.063660696
27	0xba9de0ff	-0.0012045203
28	0xbd574887	-0.0525594
29	0x3d755637	0.059896674
30	0x3dbea5aa	0.09308942
31	0xbca1f9cc	-0.019772433
32	0x3d47cd6f	0.0487799
33	0xbd348c2c	-0.04407899
34	0xbd5f5219	-0.054521654
35	0xbd99e09e	-0.075135455
36	0xbd91ad00	-0.07113075
37	0x3c9e56fb	0.019328585
38	0x3d57e6d4	0.05271037
39	0x3d967e2e	0.073482856
40	0xbd83d8f0	-0.06437862
41	0xbd31f1e2	-0.043443568
42	0x3d795f89	0.060882125
43	0xbd2b4b01	-0.041819576
44	0x3c9ac9ce	0.018895056
45	0x3d3548d3	0.044258904
46	0x3d3f8b2c	0.046763584
47	0xbd77ea3a	-0.06052611
48	0x3da27027	0.079315476
49	0xbd945bde	-0.07244085
50	0x3b8b2e67	0.004247475
51	0x3cc0c147	0.023529662
52	0xbd7fa078	-0.062408894
53	0x3d85c782	0.06532194
54	0x3db02e7a	0.08602615
55	0xbda7929a	-0.08182259
56	0xbb8e8df8	-0.00435042
57	0xbd5898f4	-0.052880242
58	0x3db2862f	0.08717
59	0x3cd313b4	0.025766231
60	0x3d9fc9ee	0.07802187
61	0x3d94421d	0.072391726
62	0xbdaa055b	-0.08301803
63	0xbd9ea7cc	-0.077468485
64	0x3d915c4e	0.07097684
65	0xbd4dfa40	-0.050287485
66	0xbd9de7f0	-0.07710254
67	0xbd55f18d	-0.052232314
68	0xbd3e5d28	-0.04647556
69	0x3d9e331e	0.077245936
70	0xbd01c287	-0.031679656
71	0x3bc55f95	0.006023357
72	0x3d4dd790	0.050254405
73	0xbd7997f9	-0.060935948
74	0x3d0af0c3	0.033921015
75	0xbce69753	-0.028148329
76	0x3d8cdfa4	0.068785936
77	0x3d57b8cb	0.052666467
78	0xbda80063	-0.08203199
79	0xbba00923	-0.0048839017
80	0xbd8c7142	-0.0685754
81	0x3d365c46	0.044521593
82	0xbce3a3e0	-0.027788103
83	0xbd0098d6	-0.031395756
