pytorch_LeNet-5/lenet_weights_epoch(10)/conv2_weight.npy (npy, 9728 bytes, 1 tensors)

array f4 [16, 6, 5, 5]
0	0xba1e70ff	-0.00060440594
1	0xbd300f19	-0.04298315
2	0xbd0f7f81	-0.035033707
3	0x3c9af41c	0.018915229
4	0x3cbcd2dd	0.023049766
5	0xbc868687	-0.01642157
6	0x3d7d3de5	0.061826605
7	0xbd5bd1be	-0.053666823
8	0x3cc1f0a2	0.023674313
9	0x3cef12e8	0.02918382
10	0xbd28ea97	-0.041239347
11	0xbcaf1438	-0.021371946
12	0x3d0b6ae0	0.03403747
13	0x3d89f64b	0.0673643
14	0x3d272449	0.04080609
15	0x3cad3150	0.021141678
16	0xbb68d725	-0.0035528627
17	0x3d91f379	0.07126517
18	0x3d52f71e	0.0515052
19	0x3c2b15f1	0.010442243
20	0x3dc1f900	0.09471321
21	0xbdf0dab1	-0.11760462
22	0xbd2b2bc8	-0.0417898
23	0xbdfbdd3b	-0.12298056
24	0xbe3a2dcf	-0.18181537
25	0x3d3d1c4f	0.046169575
26	0x3d5a9993	0.053369116
27	0x3e0badf3	0.13640575
28	0x3d88d6fa	0.066816285
29	0xbdb3b5cb	-0.08774909
30	0x3ca74d87	0.02042271
31	0x3d896a0e	0.067096815
32	0xbd1f8493	-0.038944792
33	0x3d6b180a	0.057395972
34	0x3d677108	0.05650428
35	0xbbb52672	-0.0055282647
36	0x3d2a60ae	0.041596107
37	0x3d0ae2d9	0.033907745
38	0xbc32bc8f	-0.010909214
39	0x3d478b24	0.04871668
40	0xbdca97d9	-0.09892244
41	0xbe1370b0	-0.14398456
42	0xbde73f47	-0.11291366
43	0xbe0331fc	-0.12812036
44	0xbddb6f1e	-0.10714553
45	0xbd493ae6	-0.049128436
46	0xbe48b05d	-0.19598527
47	0xbd9e1d09	-0.07720382
48	0xbd3f0165	-0.04663219
49	0xbc437802	-0.011930468
50	0x3d82bb46	0.06383376
51	0xbc7b611a	-0.015342975
52	0x3d10595f	0.03524148
53	0x3ce35d1c	0.027754359
54	0xbd6cd13c	-0.05781673
55	0xbcf847cd	-0.030307675
56	0xbbabe48b	-0.0052457503
57	0x3d2fb172	0.042893834
58	0xbe0800d8	-0.13281572
59	0xbd561680	-0.05226755
60	0x3d2ff5ce	0.042959027
61	0x3d93d264	0.07217863
62	0x3db32bf0	0.08748615
63	0xbd2a920a	-0.04164318
64	0xbd1fdb05	-0.039027233
65	0x3e00d057	0.12579475
66	0x3e36c838	0.17849815
67	0x3dcc91df	0.0998876
68	0x3d7ade70	0.06124729
69	0xbdd9e22f	-0.10638844
70	0x3d6948e5	0.056954283
71	0xbd06e9f0	-0.032937944
72	0xbd68fbd5	-0.05688079
73	0xbda9d1e7	-0.08291989
74	0xbcf706cf	-0.030154614
75	0x3df15fd6	0.117858574
76	0xbc133f33	-0.008987236
77	0x3d7fd504	0.062459007
78	0xbd87e1d6	-0.06634872
79	0xbd779ae6	-0.060450457
80	0x3d5241d2	0.051332302
81	0xbd70298a	-0.058633365
82	0x3d190d1d	0.03736602
83	0xbdbcc8a5	-0.092179574
84	0xbdeeedfd	-0.116664864
85	0x3cde6708	0.027148739
86	0x3d1000e8	0.035157114
87	0xbc342293	-0.010994571
88	0xbc4837ac	-0.012220304
89	0xbd7c18cc	-0.061547086
90	0x3d9575db	0.0729787
91	0xbd0d88d7	-0.03455433
92	0xbcc4e462	-0.024034683
93	0xbcb20f54	-0.021735825
94	0xbe2bab62	-0.16764596
95	0x3ccf37c5	0.025295148
96	0x3b8b30c8	0.0042477585
97	0x3cf38119	0.029724644
98	0x3dd7d1b3	0.10538044
99	0x3de4e13c	0.111757725
100	0x3d80b1ae	0.0628389
101	0x3dd88dee	0.10573946
102	0x3e02a429	0.12757935
103	0x3d64257d	0.055699814
104	0xbd827659	-0.06370229
105	0x3d4359d7	0.0476931
106	0x3d9a71dc	0.07541248
107	0x3d959fcc	0.073058695
108	0x3cb47b39	0.022031413
109	0xbd42a3de	-0.047519557
110	0xbd12e274	-0.035860494
111	0x3a301e4f	0.00067183835
112	0xbe0954a0	-0.13411188
113	0xbc804bef	-0.015661208
114	0x3d955e50	0.07293379
115	0xbe2c02df	-0.1679797
116	0xbd83bf69	-0.06432993
117	0x3cb5e4f7	0.022203906
118	0x3e22ff96	0.15917811
119	0x3dd90ca1	0.10598112
120	0x3d213ac5	0.039362688
121	0x3ced6e88	0.02898337
122	0x3b70b67f	0.003672987
123	0xbd8f8f98	-0.0700981
124	0xbdff3988	-0.12462145
125	0xbda67f34	-0.08129731
126	0xbc370722	-0.011171134
127	0x3c3f87f1	0.011690126
128	0xbd99c870	-0.075089335
129	0xbdf5598d	-0.11979971
130	0x3d990fa1	0.07473684
131	0xbcf66891	-0.030079158
132	0xbd89d18e	-0.067294225
133	0x3d15f063	0.036606204
134	0xbc8392d1	-0.016061218
135	0x3daca645	0.08430151
136	0x3d2f0a4a	0.04273442
137	0x3d797bf8	0.06090924
138	0x3e13227d	0.14368625
139	0x3e302261	0.17200615
140	0xbd086098	-0.033295244
141	0xbbc1cd6a	-0.00591438
142	0x3cd066ea	0.025439698
143	0x3be23cb1	0.0069042076
144	0xbb8156ad	-0.0039471
145	0xbe4e81c2	-0.20166686
146	0xbe6e3d25	-0.23265512
147	0xbe9d5fc5	-0.3073713
148	0xbe39887d	-0.18118472
149	0xbd2de903	-0.042458545
150	0x3dedbdc6	0.11608462
151	0xbc6004ef	-0.013673051
152	0xbd8b91c1	-0.0681491
153	0xbcee8709	-0.029117124
154	0x3d07f176	0.03318926
155	0x3b515783	0.003194303
156	0xbd840314	-0.064458996
157	0xbd9f0957	-0.07765453
158	0xbd377e23	-0.044798028
159	0x3d5693bf	0.052386995
160	0x3d48ee41	0.04905534
161	0xbe8132e2	-0.25234133
162	0xbe00a2b7	-0.12562071
163	0x3b92c653	0.0044792085
164	0x3ae62b26	0.0017560467
165	0x3d255764	0.040366545
166	0xbd9c1571	-0.07621277
167	0xbdcc4661	-0.09974361
168	0x3d5642b7	0.052309718
169	0x3d58d04d	0.052933026
170	0x3cff7cbf	0.031187413
171	0xbd850a10	-0.0649606
172	0x3d9a72b9	0.07541413
173	0x3d0dba6b	0.03460161
174	0xbd80babf	-0.06285619
175	0x3c8078e5	0.015682647
176	0x3cf351f0	0.029702157
177	0xbd38a6c2	-0.045080908
178	0xbdb816da	-0.089887336
179	0xbda40dc6	-0.080104396
180	0x3d08e4a5	0.033421177
181	0xbcb1257a	-0.021624316
182	0xbb5d433c	-0.0033761999
183	0xbcd4fe53	-0.026000177
184	0x399f4abc	0.00030382525
185	0xbbcc0f76	-0.006227429
186	0x3c3a05df	0.011353939
187	0xbdd0abac	-0.10188994
188	0xbd7c54bf	-0.061604258
189	0x3c77fbdb	0.015135731
190	0xbd54bf57	-0.05194029
191	0xbdebe5a2	-0.11518408
192	0xbcaea1b4	-0.02131734
193	0xbd89a980	-0.06721783
194	0xbe20114a	-0.15631595
195	0x3d90d4f4	0.070718676
196	0xbd340724	-0.043952122
197	0xbcad1f8b	-0.021133205
198	0x3de80978	0.11329931
199	0x3d1534dd	0.036427367
200	0xbdb079c7	-0.08616977
201	0xbde1e582	-0.11030103
202	0xbd9cefee	-0.076629505
203	0x3d319997	0.043359365
204	0xbd4da352	-0.050204583
205	0xbdfca8e1	-0.123368986
206	0xbd47127e	-0.04860162
207	0x3e2dad02	0.16960528
208	0x3d8eafd9	0.06967134
209	0x3dd80d17	0.10549372
210	0xbc4c7401	-0.012478829
211	0xbc8b6666	-0.0170166
212	0x3d54f1ab	0.051988285
213	0x3e254ed7	0.16143356
214	0xbd456a6e	-0.048197202
215	0x3da056e2	0.078290716
216	0x3d6c2b9f	0.057658788
217	0x3dc01a4a	0.09380014
218	0xbd2b0cf6	-0.041760407
219	0x3d10cd2a	0.03535191
220	0x3d537871	0.051628534
221	0xbd193a4a	-0.037409104
222	0x3dde4ce8	0.108545125
223	0x3c59f66b	0.0133033795
224	0xbe27a6be	-0.16372201
225	0xbd51cca9	-0.05122057
226	0x3b935065	0.0044956678
227	0x3da23710	0.079206586
228	0x3dca1c57	0.09868687
229	0x3d647840	0.05577874
230	0xbdcff946	-0.10154967
231	0x3e2e0fa4	0.16998154
232	0x3e236362	0.1595588
233	0x3e6c371b	0.23067896
234	0x3e014f8c	0.12628001
235	0xbe14fa8c	-0.14548701
236	0x3dde6b55	0.10860316
237	0x3e27a503	0.1637154
238	0x3e268238	0.16260612
239	0x3dc0c513	0.09412589
240	0x3abd6140	0.0014448538
241	0xbc8475b2	-0.016169403
242	0x3e09d4af	0.13460039
243	0x3d956fd3	0.072967194
244	0xbcb30640	-0.021853566
245	0x3d3f70a3	0.046738278
246	0x3d78005a	0.06054721
247	0xbca88498	-0.020571038
248	0xbda58dbf	-0.080836765
249	0xbe24c7c4	-0.1609183
250	0xbdf7365d	-0.12070916
251	0xbd6d2b5f	-0.05790269
252	0xbdcdbcb2	-0.100457564
253	0xbdb30c5b	-0.08742591
254	0xbdef67f4	-0.11689749
255	0xbc403a17	-0.0117326
