pytorch_LeNet-5/parameters_standard/conv2_weight.npy (npy, 9728 bytes, 1 tensors)

array f4 [16, 6, 5, 5]
0	0x3d3c8081	0.04602099
1	0x3d7f3bba	0.06231282
2	0x3d2b4966	0.041818045
3	0x3cabb3ed	0.020959819
4	0xbd7b6734	-0.06137772
5	0xbd8eac94	-0.069665104
6	0xbc0c18c2	-0.008550825
7	0xbd113ea2	-0.035460122
8	0xbd343774	-0.043998197
9	0x3bd0aad1	0.006368019
10	0xbd95979d	-0.073043086
11	0xbdab47fb	-0.083633386
12	0xbd53ad8e	-0.051679187
13	0xbd1e0109	-0.038575206
14	0x3d075def	0.033048566
15	0xbe076255	-0.13221104
16	0xbe4ec840	-0.20193577
17	0xbc96b0de	-0.018394884
18	0x3c8f3da6	0.017485451
19	0x3d8e707b	0.06955048
20	0xbe068fa2	-0.13140729
21	0xbe10331c	-0.14081997
22	0xbda67040	-0.08126879
23	0x3e1c8a00	0.15287018
24	0x3dcd9528	0.10038215
25	0x3d744737	0.05963823
26	0x3d9d815a	0.076906875
27	0x3d176011	0.03695685
28	0x3bc53de4	0.006019341
29	0xbe0b9e3e	-0.13634583
30	0x3d8c640b	0.06855019
31	0xbbc8bd49	-0.00612608
32	0x3d99fb99	0.075186916
33	0xbb8a9c8c	-0.0042300876
34	0xbe0dbe5d	-0.13842149
35	0xbd3e4836	-0.046455584
36	0xbd458525	-0.04822268
37	0x3ccc6a10	0.024952918
38	0xbde8f5bb	-0.11374994
39	0xbd83fd69	-0.064448185
40	0xbb005189	-0.0019579849
41	0xbda24bfc	-0.07924649
42	0x3c89b975	0.016812066
43	0xbcb8764a	-0.022517342
44	0x3c9a7144	0.018852837
45	0x3d7d9fca	0.061919965
46	0x3dc00d83	0.09377577
47	0x3d1173e9	0.03551093
48	0x3c953078	0.018211588
49	0xb9d3b1e9	-0.0004037761
50	0x3cea5878	0.028606638
51	0xbddce492	-0.10785784
52	0xbcfd8fde	-0.03095239
53	0xbd8ae960	-0.06782794
54	0x3cd5b145	0.026085505
55	0x3d9c2d04	0.076257735
56	0xbd235b3e	-0.039881937
57	0xbd1bd7cc	-0.038047597
58	0xbdb7c1d0	-0.08972514
59	0x3e1c7ba0	0.15281534
60	0x3dc0aad2	0.094075814
61	0x3d98e666	0.0746582
62	0x3e323adf	0.1740527
63	0xbd19c317	-0.037539568
64	0x3e181cf8	0.148548
65	0x3dea9fc9	0.11456258
66	0x3da39d06	0.07988934
67	0x3daac390	0.08338082
68	0xbbfe3ce7	-0.007758725
69	0x3d960ca2	0.07326628
70	0x3e196b84	0.1498242
71	0x3e012eac	0.1261546
72	0x3d3b40f1	0.04571623
73	0xbd83cd14	-0.064356
74	0x3d13236d	0.035922457
75	0x3dd9bf4c	0.1063219
76	0xbaa852bd	-0.0012842041
77	0xbdb8488d	-0.08998213
78	0x3c128acd	0.0089442255
79	0x3b6babc8	0.0035960544
80	0x3d2c28b7	0.042031016
81	0x3d5629b4	0.052285865
82	0xbcbebcf1	-0.023283454
83	0x3d9cbf43	0.07653668
84	0xbe1cccd1	-0.15312506
85	0xbd57060c	-0.052496
86	0xbd9afd2e	-0.075678214
87	0xbd8c54c2	-0.06852104
88	0x3d8886ef	0.066663615
89	0xbdcd59e5	-0.10026912
90	0x3a8c473f	0.0010702385
91	0xbc7d5dd8	-0.015464269
92	0xbd5caba2	-0.05387462
93	0x3df4cb45	0.11952833
94	0x3cb0d1e0	0.021584451
95	0x3dd8fb9c	0.10594866
96	0x3d0dd4f2	0.03462691
97	0xbd8f0423	-0.06983211
98	0x3dc46c00	0.09590912
99	0x3dc82b38	0.09773868
100	0x3c8fdced	0.0175614
101	0xbda7e67e	-0.0819826
102	0xbd80c747	-0.06288009
103	0xbdaa49b8	-0.08314842
104	0xbcac76ed	-0.021052802
105	0xbc94b1be	-0.01815116
106	0xbdda65c4	-0.106639415
107	0xbe0fef7d	-0.14056201
108	0xbd06e946	-0.03293731
109	0x3db23250	0.087010026
110	0xbe18b97d	-0.14914508
111	0xbd831852	-0.06401123
112	0xbd940eba	-0.07229371
113	0xbd2c54d4	-0.042073086
114	0xbcf5928f	-0.029977111
115	0xbe17825c	-0.14795822
116	0x3bda49e8	0.0066616423
117	0x3d26ab29	0.040690575
118	0xbe3658d3	-0.17807321
119	0xbe1a1c75	-0.15049918
120	0xbdc4164d	-0.09574566
121	0x3d619b44	0.055079713
122	0x3dac3485	0.08408455
123	0xbe31d3d9	-0.1736597
124	0xbb949105	-0.0045338892
125	0x3da86593	0.08222499
126	0x3da603cc	0.08106193
127	0xbc90e80e	-0.017688777
128	0xbe02cb41	-0.12772848
129	0x3ddc2090	0.10748398
130	0x3e10346c	0.14082497
131	0x3de8da3a	0.113697484
132	0xbcc0bcf4	-0.0235276
133	0xbd58b466	-0.052906416
134	0x3e22e444	0.15907389
135	0x3dce74e2	0.100808874
136	0x3cdf3135	0.027245143
137	0xbda664bf	-0.081246845
138	0x3c5fe4b5	0.013665368
139	0x3db10dc4	0.08645204
140	0x3c3fd888	0.01170934
141	0xbd565685	-0.052328605
142	0xbd70f6b5	-0.05882903
143	0xbd5727c0	-0.052528143
144	0xbdbe5e56	-0.09295337
145	0xbe3d4fc7	-0.18487464
146	0xbded3cf6	-0.11583893
147	0xbd4eb8a9	-0.050469074
148	0x3d754af7	0.059885945
149	0xbdc05f77	-0.093932085
150	0x3d4667d2	0.048438855
151	0xbddf9342	-0.10916759
152	0xbddc578c	-0.10758886
153	0xbd5f15b7	-0.05446407
154	0xbd763569	-0.06010953
155	0xbdc45c85	-0.09587959
156	0xbc9c80fb	-0.019104471
157	0xbe5c5d41	-0.21519949
158	0xbe48bc10	-0.1960299
159	0xbded7be6	-0.115958974
160	0x3d95b8e8	0.07310659
161	0x3d2905a5	0.04126515
162	0xbc6e12ad	-0.01453082
163	0xbd325613	-0.043539118
164	0xbdfbfb5f	-0.123038046
165	0x3d0395a3	0.032125127
166	0xbd34eb26	-0.044169568
167	0xbd19d398	-0.037555307
168	0x3daa7e07	0.08324819
169	0x3c696d69	0.014247277
170	0x3c0f720c	0.008755218
171	0xbd7b494e	-0.061349206
172	0xbdd68d11	-0.10476125
173	0x3ce01306	0.027352821
174	0x3d636f5e	0.05552613
175	0xbe031ebc	-0.12804693
176	0xbe11c8c9	-0.1423675
177	0xbde4a761	-0.111647375
178	0xbb945aee	-0.004527441
179	0x3cefa286	0.029252302
180	0xbde028c2	-0.10945274
181	0xbe2828bd	-0.1642179
182	0x3c9ac939	0.018894779
183	0xbd2090fd	-0.03920077
184	0x3d18d253	0.037309956
185	0x3d6a9487	0.057270553
186	0x3d401ef6	0.046904527
187	0x3d59ffb8	0.053222388
188	0xbca57583	-0.020197636
189	0x3cc4b817	0.024013562
190	0xbde5be83	-0.11217978
191	0x3d8411b1	0.06448687
192	0x3d16fda3	0.03686298
193	0xbdbbad93	-0.09163966
194	0xbdb09ae0	-0.0862329
195	0xbd94968c	-0.07255277
196	0xbde8eabc	-0.11372897
197	0x3d275b10	0.04085833
198	0xbd82c27b	-0.063847505
199	0xbe6750c8	-0.2258941
200	0x3d0c749b	0.03429089
201	0x3ce4fd00	0.027952671
202	0x3d289495	0.041157324
203	0xbbaab0b3	-0.0052090525
204	0xbdc6dcad	-0.09710059
205	0x3da78b9b	0.081809245
206	0xbd164457	-0.036686268
207	0xbdf46377	-0.11933034
208	0xbce6816c	-0.028137885
209	0xbe2ae69b	-0.16689532
210	0xbdb474ce	-0.08811341
211	0xbdf1d045	-0.118073024
212	0xbdcf10f3	-0.10110655
213	0xbde5e1e4	-0.11224726
214	0xbdf73c92	-0.120721
215	0x3d8633ee	0.065528736
216	0xbd35c639	-0.044378493
217	0xbd92facd	-0.07176743
218	0xbe18d2f0	-0.14924216
219	0xbe4d1bba	-0.20030108
220	0x3d9b06b7	0.0756964
221	0x3c681cae	0.014166994
222	0x3d61f968	0.055169493
223	0xbbea6b61	-0.007153914
224	0xbd084fd2	-0.033279248
225	0xbd08ab35	-0.0333664
226	0x396eefa0	0.00022786716
227	0xbda69652	-0.0813414
228	0x3da7e9a2	0.08198859
229	0x3d0a2a5b	0.0337318
230	0x3d18d76e	0.037314825
231	0x3d602bb9	0.054729197
232	0xbdc10a4e	-0.094257936
233	0xbd07053f	-0.032963987
234	0x3d167874	0.036735967
235	0x3c97a3cd	0.018510723
236	0x3bff72eb	0.0077956817
237	0xbdbf777f	-0.09348964
238	0xbe215f53	-0.1575902
239	0xbe101cb0	-0.14073443
240	0xb9f7eec0	-0.00047289394
241	0x3d53cf1b	0.051711183
242	0xbdb02c2d	-0.08602176
243	0xbe42e4b7	-0.1903256
244	0xbd0af422	-0.03392423
245	0xbd623112	-0.05522258
246	0xbb44c645	-0.0030025404
247	0xbd904b4d	-0.070456125
248	0x3bd480d5	0.0064850845
249	0x3daab41f	0.083351366
250	0xbd11f97d	-0.03563832
251	0x3daed51d	0.08536742
252	0x3c4fa934	0.0126746185
253	0xbbe54b19	-0.0069974777
254	0x3df7262a	0.12067826
255	0xbda4f984	-0.08055404
