pytorch_LeNet-5/parameters_standard/fc2_bias.npy (npy, 464 bytes, 1 tensors)

array f4 [84]
00000000: 5d21 77bd 9fb1 d83c 07df babd 87d0 3ebd
00000010: bab4 993d 4823 cfbc 494c b1bc 1c83 393d
00000020: fabd c4bc dd73 4ebd 50df 81bd 5a59 21bd
00000030: 3eb9 a53d d605 3b3d 7ff8 2c3d 8252 383d
00000040: bda8 a2bd ea00 8abd 968a e4bc 23f6 80bd
00000050: 05a2 a8bc 3bc3 09bd 2747 993d b285 25bd
00000060: 1f4a 9cbd 4f17 263d 6063 033d 6184 87bd
00000070: 6c09 003d 476f 063d aa76 733d 136c 093d
00000080: 44b4 fcbc 287b 9c3d 1a7f 71bd 929a 3939
00000090: a058 8839 a2d6 033d f0fc 273d 2bed 6a3d
000000a0: 5519 073d da21 81bd 9cb7 2abd d032 0e3d
000000b0: d7aa 2e3d 2383 be3c e4d6 b63c 89d8 1abd
000000c0: 4a41 9b3d ca82 833d 14b8 e3bc f4a3 1fbd
000000d0: 1cb2 763d 5e84 89bd 7936 a73c b331 a9bd
000000e0: 3883 993d b0dc 4b3d 86e8 ecbc c104 acbd
000000f0: 0449 a9bd cdc3 a2bd cadf 5d3c 4509 673d
00000100: 64af 8dbd 5625 8dbd 8b9e 2bbd 06ef a9bd
00000110: f21d 073c b5c2 d73c 7a90 31bd c36f bfbc
00000120: 2972 08bd beb5 503d acfc 9ebc 9237 ae3d
00000130: 3b8c a33d 369e 78bc e461 b13d a777 bb3d
00000140: 9021 11bd f280 1fbc b674 9d3c 0af5 3bbd
-0.060334552 0.026451884 -0.0912457 -0.046585586 0.07505174 -0.025285378 -0.02164282 0.04529105
-0.02401637 -0.050403465 -0.063414216 -0.039391853 0.08091973 0.045659862 0.04222917 0.04500056
-0.079423405 -0.067384556 -0.027898114 -0.06296947 -0.02058507 -0.033633452 0.07484274 -0.040410705
-0.07631325 0.040549573 0.032077193 -0.06617046 0.031258985 0.032820966 0.05943934 0.033550333
-0.030847676 0.07640678 -0.058959104 0.00017700557 0.00026005972 0.03218711 0.041012704 0.057355087
0.032983143 -0.06305285 -0.04167901 0.034716427 0.042643394 0.02325589 0.022319265 -0.03780416
0.07580812 0.064214304 -0.027797736 -0.038974717 0.060228452 -0.067147 0.020411717 -0.082614325
0.07495731 0.04977101 -0.02891947 -0.08399344 -0.0826588 -0.07947502 0.013542125 0.056405324
-0.06918219 -0.06891887 -0.041899245 -0.08297543 0.008246886 0.02633796 -0.043350674 -0.023368722
-0.033311997 0.050954573 -0.019407593 0.08506693 0.07985731 -0.015174439 0.08661249 0.09153681
-0.0354324 -0.009735333 0.019220691 -0.045887984
