pytorch_LeNet-5/model_no_10/fc1_weight.npy (npy, 40448 bytes, 1 tensors)

array f4 [84, 120]
0	0x3e1ac19b	0.15112917
1	0x3cf6b9ed	0.030117953
2	0x3e113c1e	0.14183089
3	0xbcc02845	-0.023456702
4	0x3c7d7b1c	0.015471246
5	0xbd1887cd	-0.037238885
6	0x3e2b33cd	0.16718979
7	0x3d49b402	0.049243934
8	0xbd93b5f6	-0.07212441
9	0xbdaec15b	-0.085329734
10	0xbd869e11	-0.065731175
11	0xbd109eb5	-0.035307605
12	0x3d1acc03	0.037792217
13	0x3df0061f	0.117199175
14	0x3c80599b	0.015667727
15	0xbd876806	-0.06611638
16	0xbdce7bd3	-0.10082211
17	0x3d56c314	0.052432135
18	0x3d960934	0.07325974
19	0x3dd5a5d1	0.104320176
20	0xbdf7b1b9	-0.12094445
21	0x3e600119	0.21875419
22	0x3dc386b0	0.09547174
23	0x3d69295b	0.056924205
24	0xbd189be7	-0.037258055
25	0x3be098c6	0.0068541495
26	0xbc7cb202	-0.0154233
27	0xbcd08e87	-0.025458587
28	0x3e948b92	0.29012734
29	0xbc56eb1b	-0.013117577
30	0x3e287785	0.16451843
31	0xbca9e8ee	-0.020740952
32	0xbd3d4684	-0.046209827
33	0xbde71b08	-0.11284453
34	0xbe68db6a	-0.2273995
35	0xbd97e1b5	-0.07416097
36	0xbbe0f09d	-0.006864621
37	0xbdd3577f	-0.10319423
38	0x3dd22e94	0.1026279
39	0xbdcb2a99	-0.09920234
40	0xbd25856d	-0.040410448
41	0x3db26f1b	0.08712598
42	0xbd8ab5d5	-0.06772963
43	0xbe83e76c	-0.25762498
44	0xbe36ec84	-0.17863661
45	0x3c354ae2	0.011065217
46	0x3d07c5d5	0.03314765
47	0x3deb883b	0.11500593
48	0x3aa2b303	0.0012412969
49	0xbd71a0d5	-0.058991272
50	0xbd2510fc	-0.0402994
51	0x3e5ad67d	0.21370883
52	0xbe0afbe1	-0.13572647
53	0x3d78e5c2	0.06076599
54	0xbe545f97	-0.2073959
55	0xbd4bd870	-0.049766958
56	0x3dd7d4e7	0.10538655
57	0xbde17ac5	-0.110097446
58	0x3d8e8c58	0.06960362
59	0x3e080033	0.13281326
60	0x3d8107fc	0.06300351
61	0x3b8e71eb	0.004347076
62	0x3d5ab975	0.05339952
63	0xbdb931b9	-0.09042687
64	0xbe0ad52c	-0.13557881
65	0xbd2d66df	-0.042334434
66	0xbd5c3ed8	-0.05377087
67	0x3d2aa2b6	0.04165908
68	0xbe813bb7	-0.2524087
69	0x3d12e4c0	0.035862684
70	0x3e0f6448	0.14003098
71	0x3e09daea	0.13462415
72	0xbe329324	-0.17438942
73	0xbbeab85b	-0.00716309
74	0x3ccb8c66	0.02484722
75	0xbdc3a512	-0.09552969
76	0x3d2b3adc	0.04180418
77	0xbe2df99a	-0.16989747
78	0x3d75f44d	0.060047437
79	0x3d486666	0.04892578
80	0x3d27b110	0.040940344
81	0xbd786f1f	-0.06065285
82	0x3c53a264	0.012917135
83	0x3e22ee5a	0.15911236
84	0x3daabe24	0.08337048
85	0xbe4b4003	-0.19848637
86	0xbdfac33e	-0.12244271
87	0xbd9889bd	-0.074481465
88	0x3dda1e72	0.10650338
89	0x3d0431db	0.03227411
90	0xbe1083ba	-0.1411275
91	0xbd974e16	-0.073879406
92	0x3c9e93db	0.019357612
93	0x3c0354a1	0.008015783
94	0xbdb5cb21	-0.088766344
95	0xbdb4125f	-0.087925665
96	0x3d53a393	0.05166967
97	0x3c96c553	0.018404638
98	0xbce81270	-0.028329104
99	0xbdc6ed63	-0.09713247
100	0xbddb827d	-0.10718248
101	0xbda8ce81	-0.082425125
102	0x3dd3b6df	0.10337614
103	0x3dae4a7c	0.085103005
104	0x3d614d48	0.05500534
105	0x3b7457f9	0.003728388
106	0xbd20be39	-0.03924391
107	0x3d87bdb6	0.06627981
108	0xbd2241b5	-0.039613444
109	0xbcc9cd8f	-0.02463415
110	0x3e239492	0.15974644
111	0xbd4928cb	-0.04911117
112	0x3da8c55a	0.08240767
113	0xbd6b92a3	-0.05751289
114	0xbddee899	-0.10884208
115	0x3e376fa2	0.17913678
116	0xbd845c25	-0.06462888
117	0xbd52e51d	-0.05148803
118	0xbd7a5256	-0.061113678
119	0xbd86792e	-0.06566082
120	0xbbe1a85c	-0.006886525
121	0xbdb280aa	-0.08715947
122	0xbd45bc75	-0.04827543
123	0xbd1324b0	-0.03592366
124	0xbdb3929e	-0.087681994
125	0x3df43a32	0.119251624
126	0x3d0c1cf4	0.0342073
127	0x3dcfec7e	0.10152529
128	0xbe411db8	-0.18858993
129	0xbc8861f3	-0.016648268
130	0xbde37567	-0.11106377
131	0x3ca49d09	0.020094411
132	0x3dd3a36f	0.10333907
133	0x3d1963f5	0.037448842
134	0xbdac1e64	-0.08404234
135	0x3d8fe0fc	0.07025334
136	0xbe57155c	-0.21004242
137	0x3ace9ca8	0.001576324
138	0x3d04e4c6	0.032444738
139	0x3d6eabb1	0.058269206
140	0xbe5ffe6c	-0.21874398
141	0x3de2ce9f	0.11074566
142	0x3e044627	0.12917386
143	0xbe26bfd3	-0.16284113
144	0x3dfcb461	0.12339092
145	0xbd3f9f21	-0.046782617
146	0x3dfc5f2e	0.123228416
147	0xbd072964	-0.032998458
148	0x3da80c4b	0.0820547
149	0x3d2449d5	0.040109474
150	0x3d64ac7c	0.055828556
151	0xbda5976c	-0.08085522
152	0xbccb939d	-0.024850661
153	0xbcdff0cf	-0.027336506
154	0x3d8f49d9	0.06996507
155	0xbcbbd937	-0.022930725
156	0xbd39fd36	-0.045407496
157	0xbe3619a7	-0.17783223
158	0x3c116ee5	0.008876537
159	0x3e2d5d8b	0.16930215
160	0x3dacbbc0	0.08434248
161	0xbda004c5	-0.0781341
162	0x3d46e468	0.04855767
163	0xbc4351ca	-0.0119213555
164	0x3cc2a57f	0.023760555
165	0xbd8e4eaa	-0.06948598
166	0x3e15c4d8	0.14625871
167	0x3d37442c	0.04474275
168	0x3ca9b957	0.02071826
169	0xbd3808b9	-0.044930194
170	0x3d1dc140	0.038514376
171	0xbc9cacee	-0.019125428
172	0x3d3ee130	0.046601474
173	0x3dc0f2d8	0.09421319
174	0xbcb861cd	-0.022507573
175	0x3cb05e09	0.021529214
176	0x3bd989b4	0.00663873
177	0x3e1ec8e5	0.15506323
178	0xbbf4fd66	-0.0074764965
179	0x3d89b837	0.06724589
180	0x3de79186	0.11307053
181	0x3e0bbe5e	0.13646838
182	0xbe3ba4d2	-0.18324593
183	0x3d00002a	0.031250156
184	0xbdaad738	-0.08341831
185	0x3b880691	0.0041511734
186	0xbc8e91fb	-0.017403593
187	0x3c19c5d4	0.009385545
188	0xbe2921dd	-0.16516824
189	0xbde7f407	-0.113258414
190	0xbe091b02	-0.13389209
191	0x3e9116a1	0.28337577
192	0x3da9afa7	0.08285456
193	0x3ddc9063	0.10769727
194	0x3dc2f2b4	0.09518948
195	0xbc1ad9b7	-0.009451321
196	0xbdea7224	-0.11447552
197	0x3cd97dd8	0.026549265
198	0x3dd402f0	0.10352123
199	0xbd13c1cf	-0.036073502
200	0xbc20907e	-0.009800075
201	0x3d0f4c44	0.034984842
202	0xbdf729f0	-0.12068546
203	0x3d80e797	0.06294172
204	0x3d328791	0.043586317
205	0x3ddb0dd7	0.10695999
206	0xbcc02a37	-0.02345763
207	0x3e93ccc2	0.28867155
208	0x3dc3a79d	0.09553454
209	0xbdc13158	-0.0943324
210	0xbc4332a7	-0.011913932
211	0x3a2275e5	0.0006197377
212	0x3db507e7	0.08839398
213	0xbdb01276	-0.08597271
214	0xbd99a0fc	-0.075014085
215	0x3c901428	0.017587736
216	0xbd11f08f	-0.035629805
217	0x3e0d8275	0.13819297
218	0x3dbc9c37	0.09209483
219	0xbd4096d1	-0.04701883
220	0xbdc5e262	-0.0966232
221	0x3c8663d5	0.016405025
222	0x3e7ae915	0.24502976
223	0xbc05271b	-0.008126999
224	0x3ddb196d	0.10698209
225	0xbda89e71	-0.08233345
226	0xbe242478	-0.16029537
227	0x3dfb3790	0.12266457
228	0x3cd80e4e	0.026374009
229	0x3e1c8aac	0.15287274
230	0x3e26266e	0.16225597
231	0xbd3c6a74	-0.04599996
232	0x3d3a8fdf	0.045547362
233	0x3e453983	0.1926022
234	0xbd454728	-0.048163563
235	0x3e30919d	0.17243047
236	0x3ca67f56	0.02032439
237	0xbd4e4c0c	-0.050365493
238	0xbd937104	-0.071992904
239	0x3d285ade	0.041102283
240	0xbc244be1	-0.010027857
241	0x3da5f50d	0.0810338
242	0x3d472b01	0.048624996
243	0x3ce3c455	0.02780358
244	0xbcbd22ca	-0.023087878
245	0x3b80c599	0.0039298055
246	0x3dfd8968	0.12379724
247	0x3c4059c4	0.011740152
248	0x3c433cb9	0.011916333
249	0x3c2f02fa	0.010681862
250	0x3deacc8f	0.11464798
251	0xbd59db76	-0.05318781
252	0x3ca41e9b	0.020034125
253	0xbda0009e	-0.07812618
254	0xbabd4752	-0.0014440811
255	0x3d786128	0.06063953
