pytorch_LeNet-5/model_no_10/fc2_weight.npy (npy, 3488 bytes, 1 tensors)

array f4 [10, 84]
00000000: 4362 a8be 1da2 43bd f2e6 adbc 625a 11bd
00000010: 51ed 5d3c b8be 62be 39ee 17be 3e21 64bd
00000020: cc94 26bd 3cae 72be 0490 213e 979a 66bc
00000030: 433b cbbd ae91 86be 070a 40be e044 d0bd
00000040: 10b9 723c 2b50 1ebd 4a9b 40be 8eff 1d3e
00000050: 8091 663e bbc6 193e 92df 80be 744d c83a
00000060: 2ca3 2c3e 02a4 dbbd 2356 bd3c 14ca 3cbd
00000070: 33fd ae3d 4db0 093d 19da d0be b9e6 a23d
00000080: 4ffb 16be 49f5 ad3d d74e aabd 83cb 6ebe
00000090: 6adc ee3d e910 bebd 3b32 203c c7ae e33d
000000a0: 46f3 b13c c717 29be d0f6 a7bd 5872 03be
000000b0: 436f 4cbd fadc f8bd f89a 203e 5abd 1fbe
000000c0: ff91 c13c 104c 16be 7445 69bd dad1 15be
000000d0: d473 bb3d 4bb0 03be 40ad bf3d e7d3 17be
000000e0: f054 ad3d 7dcd d7bb 8110 af3d 9bff 7d3c
000000f0: e646 25be 61c0 b53d 6db1 10be ba01 cf3c
00000100: 07b2 85be a48d bbbc 6184 d13d cc84 0c3e
00000110: b0e2 46be 02e5 c63d 120a 3fbd a923 8cbe
00000120: 692c 6e3d 996e dabd b54d 05bd ad35 8fbe
00000130: dff4 223e 0f64 5fbe 7029 bebd 3970 df3d
00000140: 6324 28be 71ef f03c 41a6 a43d f891 e9bd
00000150: 2d83 abbd 06ec 1c3e 0414 113e 5c3c 0d3e
00000160: 1f03 533d ad7e 2ebe eb1b 4cbe 2b90 afbd
00000170: ac34 c5bd 85ff abbd 8bf0 1fbe 9754 633e
00000180: 7513 7b3c 26d9 bcbb 66bc a03c 109e e13b
00000190: cc4f 92bc e743 4abe a943 9e3e 857d ba3c
000001a0: 9c8c 9abd c94c 0ebe 1c58 1a3e 82bc d43c
000001b0: 80d4 8bbd ddcc 59bd bebc 4ebe 0ced 9bbc
000001c0: 8bb0 adbe 01c8 d5be a344 383e 3ad4 04be
000001d0: 53ad 2bbe fbbe f73d 4fce 6f3c 2673 be3d
000001e0: 9451 bebd 8b18 c83d 31a6 d0bd d260 8cbe
000001f0: e3dd ebbd 193a b4bd ecfd 543d 3713 5a3d
00000200: 2efa 80bb 3e25 03be 99a1 c3ba 9f21 79be
00000210: 6006 61be 859c ad3d dd06 85bd 5a2b 3bbe
00000220: b1ed 0abe 58a4 243e 3283 a73d 392c 663e
00000230: c493 9dbe b21e acbd af7a b4be dc62 b4bd
00000240: efc3 013e db0f 6a3d b05c f6bd 9b5b 24be
00000250: 778d 03be ef92 143d d4fa 143e c100 28bc
00000260: b0f4 b7bc 0c78 ef3d 9d4c 413e dcff 95bd
00000270: d89e 80b7 23bf c2bd 36f7 603e eed4 8f3d
00000280: 4dce 34be 4b34 3ebd fba3 58bd 7da2 9fbd
00000290: 1bb4 5c3d 6702 1a3c 3246 d1bd a399 5abe
000002a0: 078a a83e 6684 2a3e 22c2 c8bd 1291 ab3c
000002b0: 9801 aabc f79d b1be 149d 213e cc60 6b3d
000002c0: d698 18be a6f1 cb3d da8a 4e3e f3c6 613d
000002d0: 8fec 90bc b762 c33d dd2e f13d 510d 2e3e
000002e0: 682f c83b 1c31 193e b9aa 04be a326 a23d
000002f0: 3c03 a3be 8be4 473d 1be6 653d c521 0bbe
00000300: 0faf eebd 6bbb 10be cd9b c0bd e1c3 a13d
00000310: f7a9 e9bd 2985 9cbd 28ce 16be e353 c43d
00000320: 71a2 9b3b adca a53d 9618 663e 6b1f e5bd
00000330: 7f8c 4ebe ee5e 3ebe 7413 d53d 6a34 6dbd
00000340: 4c4b 02bd 030c b6bd c35f 28be 09dd 5dbe
00000350: d611 b73d 0848 03bc 77af 5ebd 32f8 fd3d
00000360: 6a17 c1bb 4d5b 78be f707 d63c 31a4 01be
00000370: 3754 0fbe a8a7 293e 722c aabd a071 53be
00000380: 048e 8e3d 9211 88be 8838 403d c5ba 3b3d
00000390: d2a2 f8bd 69a3 d8bc eae4 8fbd 71bf 0cbe
000003a0: 8778 cabd 7f57 643e 07fb a1be 88cd f3bd
000003b0: b7fa 533c 885f a33d 0d9f bf3d a7be 9cbe
000003c0: dd48 0e3d fcd1 423e bca2 87be 121e d7bd
000003d0: 7cab 42be 76d6 ab3c 8e4d 7bbd 4fc3 8cbd
000003e0: d369 a7be aad0 e63d 175f e73d df4b a5be
000003f0: f029 52bd d2d7 15be 55e5 143e ac21 d73d
-0.32887468 -0.047762025 -0.021228287 -0.035486586 0.01354535 -0.22143066 -0.14836968 -0.055695765
-0.040669248 -0.23699278 0.15777594 -0.014074943 -0.09923413 -0.2628302 -0.18753825 -0.10169387
0.01481463 -0.038650673 -0.18809238 0.15429518 0.22516441 0.15017216 -0.2517057 0.0015281872
0.1685912 -0.107246414 0.023112362 -0.046091154 0.08544388 0.0336154 -0.40791395 0.07954163
-0.14744304 0.0849405 -0.08315819 -0.23319821 0.116631344 -0.09280569 0.009777601 0.111173205
0.021722447 -0.16512977 -0.082013726 -0.12836587 -0.049910795 -0.12151523 0.15684116 -0.15599576
0.023629187 -0.14677453 -0.056951 -0.14630833 0.09152952 -0.12860219 0.09359217 -0.14826928
0.08463466 -0.0065857754 0.0854807 0.015502836 -0.16140327 0.08874584 -0.14130183 0.025269378
-0.26112387 -0.022894688 0.102303274 0.13722533 -0.19422412 0.097116485 -0.046640463 -0.27370957
0.05814782 -0.10665626 -0.03254481 -0.2797064 0.15913723 -0.21815513 -0.09285247 0.10910077
-0.1642013 0.02941105 0.08039523 -0.114047945 -0.08374629 0.15324411 0.14167792 0.13792557
0.05151665 -0.1704051 -0.19932525 -0.0857242 -0.09629187 -0.08398346 -0.15619104 0.22200237
0.015324463 -0.005763191 0.019621085 0.0068852976 -0.017860316 -0.19752465 0.30910996 0.02276493
-0.0754635 -0.13896479 0.15072674 0.025968794 -0.068276405 -0.05317389 -0.20189187 -0.019033931
-0.33923754 -0.41754153 0.17994933 -0.12971583 -0.16765337 0.120969735 0.01463659 0.092993066
-0.092929035 0.09770306 -0.101879485 -0.27417618 -0.11516931 -0.08800144 0.05199997 0.05324098
-0.0039360737 -0.12807176 -0.0014925479 -0.24329232 -0.21975088 0.08477119 -0.0649545 -0.18278256
-0.13567235 0.16078317 0.081793204 0.22477807 -0.307768 -0.08404292 -0.3524985 -0.088079184
0.12672399 0.057144027 -0.120293975 -0.1605057 -0.12846933 0.03627294 0.14548808 -0.010254086
-0.022455543 0.11692819 0.18876882 -0.07324192 -1.5332756e-05 -0.09509113 0.21969303 0.07023035
-0.17656823 -0.04643659 -0.05289076 -0.07794664 0.0538827 0.009399987 -0.10218467 -0.2134767
0.32917807 0.16652068 -0.09802653 0.020943198 -0.020752713 -0.3469083 0.15782577 0.05746536
-0.14902052 0.099582 0.20170155 0.055121373 -0.017690925 0.09540313 0.117765166 0.16997267
0.006109167 0.1496014 -0.1295575 0.079175256 -0.31838405 0.04880194 0.05612765 -0.13587101
-0.116544835 -0.14133994 -0.09404717 0.07898689 -0.11409371 -0.07642586 -0.1472708 0.095863126
0.004749589 0.08095298 0.22470316 -0.11187633 -0.20170783 -0.185909 0.10404101 -0.057911314
-0.03181009 -0.0888901 -0.1644278 -0.2166635 0.08938949 -0.008012779 -0.054366555 0.12400855
-0.0058926838 -0.24253578 0.026126845 -0.1266029 -0.13996969 0.16567862 -0.083092585 -0.20648813
0.06960681 -0.26575905 0.046928912 0.045832414 -0.121404305 -0.026445108 -0.07026084 -0.13744904
-0.0988627 0.22299002 -0.3163683 -0.11904436 0.012938193 0.079772055 0.093565084 -0.30614206
0.034737457 0.19025415 -0.26491344 -0.10503782 -0.19010729 0.020976286 -0.06135326 -0.0687319
-0.32697925 0.11270268 0.11297434 -0.32284448 -0.051309526 -0.1463311 0.14540608 0.10504469
