pytorch_LeNet-5/model_no_3/fc2_weight.npy (npy, 3488 bytes, 1 tensors)

array f4 [10, 84]
0	0xbe5d4463	-0.21608119
1	0xbe5ef59d	-0.21773382
2	0xbd317e36	-0.043333255
3	0xbe6039bb	-0.21897022
4	0xbeb02a09	-0.3440707
5	0x3e643309	0.22285093
6	0xbe522198	-0.20520627
7	0xbe93b5cd	-0.2884964
8	0xbe2159f1	-0.15756966
9	0xbbc20489	-0.005920951
10	0xbdbaf9d5	-0.09129683
11	0xbd5c1277	-0.053728547
12	0xbe19c41a	-0.15016213
13	0xbe8a1a51	-0.26973203
14	0x3e36ba8e	0.17844602
15	0xbe34fba5	-0.1767412
16	0x3e69be8a	0.22826591
17	0xbe041887	-0.12899981
18	0xbe0ead98	-0.13933408
19	0x3e91a572	0.28446537
20	0xbe98ab20	-0.29818058
21	0xbe067271	-0.13129593
22	0xbe281ecc	-0.16417998
23	0x3e40077b	0.18752854
24	0x3e659258	0.22419107
25	0xbe80b770	-0.25139952
26	0xbe61c9e2	-0.22049668
27	0xbe80506a	-0.2506135
28	0x3e861b1d	0.2619256
29	0x3e1aa658	0.15102518
30	0x3e31cc43	0.17363076
31	0xbe92d33e	-0.2867679
32	0xbdcd0281	-0.10010243
33	0xbe2f9756	-0.17147574
34	0xbe6a3f36	-0.22875676
35	0xbea69c6e	-0.3254122
36	0xbe2b84ea	-0.16749921
37	0x3e986e3f	0.2977161
38	0xbe7f5a8d	-0.24936886
39	0x3d88ef1c	0.066862315
40	0xbeb7e98b	-0.35920367
41	0x3e6dd2d6	0.23224959
42	0xbe8a4bea	-0.27011043
43	0xbe8e3ac1	-0.277792
44	0x3d7e99b0	0.062158287
45	0xbea6cde6	-0.32578963
46	0xbe1e3314	-0.15449172
47	0x3e828ad8	0.25496554
48	0x3e4e57a9	0.20150627
49	0xbe73271f	-0.23745392
50	0xbe23d7d8	-0.16000307
51	0xbe5e06ba	-0.21682253
52	0x3e7fbd49	0.2497455
53	0xbe7a20fd	-0.24426647
54	0x3e2b7518	0.16743886
55	0x3e80cabb	0.2515467
56	0xbe49130e	-0.19636175
57	0xbe60046f	-0.21876691
58	0xbe93ce3a	-0.28868276
59	0x3dc7fe12	0.09765257
60	0xbe4f459a	-0.20241395
61	0x3cb384f7	0.021913989
62	0xbeaf8e7c	-0.34288394
63	0xbe88871b	-0.26665577
64	0xbe2d66e8	-0.16933787
65	0xbd2403bf	-0.040042635
66	0x3e861e63	0.26195058
67	0xbd165d04	-0.0367098
68	0xbe645b27	-0.22300397
69	0x3e53ff0e	0.20702764
70	0x3e7793e8	0.24177516
71	0xbd917b0d	-0.07103548
72	0x3dfe0cc0	0.124047756
73	0x3e37af03	0.17937855
74	0x3d3da288	0.04629758
75	0xbe16e1cd	-0.14734574
76	0xbe932c11	-0.28744557
77	0xbe6d8d96	-0.23198542
78	0xbe806552	-0.250773
79	0xbe27d60d	-0.16390248
80	0xbd98f03c	-0.07467696
81	0xbe131692	-0.14364079
82	0xbe86033b	-0.2617434
83	0x3e354ebd	0.17705818
84	0xbdc67827	-0.09690886
85	0xbe5493ec	-0.20759553
86	0xbe14c7b7	-0.1452931
87	0x3e9a8c4e	0.3018517
88	0xbdd997de	-0.106246695
89	0xbe3b559c	-0.18294376
90	0x3deb52e7	0.11490422
91	0xbe719459	-0.23591746
92	0xbd9b93eb	-0.075965725
93	0xbe585437	-0.21125875
94	0xbe22c687	-0.15896045
95	0x3e89b57e	0.2689628
96	0xbd856b99	-0.06514663
97	0x3e6b191b	0.22958796
98	0xbe8aea36	-0.27131814
99	0xbe4cdb04	-0.20005423
100	0x3e7a2494	0.24428016
101	0xbe902df2	-0.28160053
102	0xbea00335	-0.31252447
103	0x3e463055	0.19354375
104	0xbe94ffc6	-0.2910139
105	0xbea9ff86	-0.3320276
106	0xbe77c564	-0.24196392
107	0xbdd28ae9	-0.10280401
108	0x3e5f2360	0.21790838
109	0x3e56cd3b	0.20976727
110	0xbdc75d09	-0.09734542
111	0xbea76a6d	-0.32698384
112	0xbe184755	-0.14870961
113	0x3e193cd7	0.14964615
114	0xbe5be1fb	-0.21472923
115	0x3e30e604	0.17275244
116	0x3e8151ce	0.25257725
117	0xbde2335a	-0.11044951
118	0xbe66a8df	-0.22525357
119	0xbe7fc35b	-0.24976866
120	0x3e2844cb	0.16432492
121	0x3d8a02a1	0.06738783
122	0xbe557b8e	-0.20847914
123	0xbe993740	-0.29924965
124	0xbe3eea51	-0.18644072
125	0xbe2d958e	-0.16951582
126	0x3e48970b	0.19588868
127	0x3e84919a	0.25892335
128	0xbe42c6c2	-0.19021133
129	0x3e2dd1ce	0.16974565
130	0x3d8210df	0.06350874
131	0xbe19f0a9	-0.15033211
132	0xbe38cdf9	-0.18047322
133	0x3e775999	0.24155273
134	0xbe9f4fbc	-0.3111552
135	0xbdfbc206	-0.122928664
136	0xbe20af23	-0.1569181
137	0x3db9658a	0.0905257
138	0xbd51648a	-0.051121272
139	0xbe48434e	-0.19556925
140	0xbe47584c	-0.19467276
141	0xbdced9a2	-0.10100104
142	0xbd42241a	-0.04739771
143	0xbe994956	-0.29938763
144	0x3d9dca16	0.077045605
145	0x3e79ca02	0.24393466
146	0x3b56642e	0.003271352
147	0xbe38caed	-0.1804616
148	0x3dc1e1db	0.09466907
149	0xbe0d1322	-0.1377683
150	0xbe806b48	-0.2508185
151	0x3e1ea2ef	0.15491842
152	0xbd371f99	-0.04470787
153	0xbe410443	-0.18849282
154	0xbddf4e01	-0.1090355
155	0xbe863b60	-0.26217175
156	0xbe8ba512	-0.27274376
157	0xbe0d5d80	-0.13805199
158	0xbde2dbe7	-0.11077099
159	0xbe1709ae	-0.14749786
160	0x3e89c821	0.269105
161	0xbe1738da	-0.14767781
162	0xbd77f3aa	-0.06053511
163	0xbe75c1f3	-0.23999767
164	0x3cafcf57	0.021461172
165	0x3e834766	0.2564041
166	0x3db6dbfd	0.08928678
167	0xbe36260b	-0.1778795
168	0xbe6027c6	-0.21890172
169	0x3d723bf5	0.05913921
170	0x3e74f4ec	0.23921555
171	0x3e1b5826	0.15170345
172	0x3e65b578	0.22432506
173	0xbe005863	-0.12533717
174	0xbe809ea5	-0.25121036
175	0xbde15590	-0.11002648
176	0x3e17c39d	0.14820714
177	0xbe9eb383	-0.30996332
178	0xbeb51364	-0.35366356
179	0xbe5493bd	-0.20759483
180	0xbe2ff7e8	-0.17184412
181	0xbe908418	-0.2822578
182	0x3c6db2c7	0.014507956
183	0xbdb8cc7d	-0.09023378
184	0xbe352995	-0.17691644
185	0xbdbbaa9a	-0.09163399
186	0xbcb54c96	-0.022131246
187	0x3e366fe6	0.17816123
188	0x3e158860	0.14602804
189	0xbe8e9b5c	-0.27852905
190	0xbe73ed1a	-0.23820916
191	0x3e8409bb	0.25788674
192	0xbe6682ee	-0.22510883
193	0x3e6b5815	0.2298282
194	0xbdf8dbea	-0.1215132
195	0xbea2ae4b	-0.317736
196	0x3d6d72f9	0.057970975
197	0xbe8b21ca	-0.27174217
198	0x3e28734e	0.16450235
199	0x3cc47ff2	0.02398679
200	0xbc11486b	-0.008867363
201	0xbe8ee551	-0.2790933
202	0x3e7922a6	0.24329624
203	0xbe1144e8	-0.14186442
204	0x3c8acff5	0.016944865
205	0xbe96c0e2	-0.29444033
206	0x3e8c9310	0.2745595
207	0xbe1bdc35	-0.15220721
208	0x3ddbd092	0.10733141
209	0xbe9445af	-0.28959414
210	0x3d901a5f	0.0703628
211	0xbeb573f1	-0.3544002
212	0x3e7b8ee5	0.24566229
213	0x3e47bece	0.1950638
214	0xbe5e38fc	-0.21701425
215	0xbe4315b1	-0.19051243
216	0x3e308ab7	0.17240416
217	0xbe8a3203	-0.2699128
218	0xbe1bd763	-0.15218882
219	0xbbfbff7f	-0.0076903696
220	0xbe1d11f1	-0.15338875
221	0xbe23c8ec	-0.15994614
222	0x3e549651	0.20760466
223	0x3c8ed8d9	0.017437385
224	0x3e43896f	0.19095396
225	0xbe70982a	-0.23495546
226	0xbe7e383e	-0.24826142
227	0xbe3bdf14	-0.18346816
228	0xbeac1c81	-0.33615497
229	0xbe8b71e9	-0.27235344
230	0xbe619b8e	-0.22031996
231	0xbe5aa133	-0.21350555
232	0x3e5d8e23	0.21636252
233	0xbe3aa52a	-0.18227068
234	0x3df36f4d	0.11886463
235	0x3c690029	0.01422123
236	0x3e3998e4	0.1812473
237	0xbda107a7	-0.07862788
238	0xbea0f763	-0.3143874
239	0xbddd6a30	-0.10811269
240	0x3e6d8f2f	0.23199151
241	0x3dd10774	0.102065
242	0xbe9dc48d	-0.3081402
243	0xbe985fde	-0.2976064
244	0x3e7ef1cf	0.2489693
245	0x3e711316	0.23542437
246	0xbe89e1df	-0.26930138
247	0x3e15438c	0.14576548
248	0xbdd5adfd	-0.10433576
249	0xbe3c75f5	-0.18404372
250	0xbdaafaae	-0.083485946
251	0x3d659474	0.05604978
252	0xbe73c852	-0.23806885
253	0xbe6e35d4	-0.23262721
254	0x3d3cf075	0.046127755
255	0xbe6ebef3	-0.23315029
