pytorch_LeNet5/model_no_1/fc1_weight.npy (npy, 40448 bytes, 1 tensors)

array f4 [84, 120]
0.11342967 -0.0443575 0.123519346 -0.04169467 0.015471246 -0.011600225 0.15112637 0.049243934
-0.027299501 -0.085329734 -0.040831212 -0.063352436 0.05074757 0.07236946 0.0032586884 -0.06611638
-0.094983526 0.052432135 0.06324741 0.116369724 -0.09244651 0.20430347 0.06437116 0.074108854
-0.029438423 0.013344174 -0.041143566 0.008794367 0.25623116 -0.013117577 0.120231025 -0.020740952
-0.046209827 -0.06104807 -0.14208052 -0.07416097 0.0039500045 -0.11266752 0.06806261 -0.092736766
-0.04139208 0.057937775 -0.067173116 -0.19407275 -0.15094022 0.015776891 0.008102929 0.10449575
0.0012412969 -0.0410071 -0.020202173 0.15272714 -0.099523716 0.06076599 -0.16491182 -0.049766958
0.09675514 -0.101996556 0.049716976 0.10734873 0.033154353 0.018918322 0.034660354 -0.09042687
-0.10993425 -0.042334434 -0.05377087 0.04165908 -0.20826444 0.03498495 0.13397759 0.13175653
-0.14250652 0.028693119 0.015730927 -0.07216441 0.0048997896 -0.15834509 0.059059065 0.06478771
0.040940344 -0.06065285 0.047935147 0.14717495 0.08337048 -0.16909456 -0.10307713 -0.069270186
0.04401981 0.01641034 -0.0611185 -0.073879406 -0.01656674 0.008015783 -0.033444792 -0.052331097
0.05166967 -0.039196018 -0.011479609 -0.09713247 -0.060257956 -0.06501229 0.084232986 0.082109086
0.03332097 0.0060129943 -0.041642904 0.07017622 -0.039613444 -0.011667909 0.13617606 -0.04911117
0.08240767 -0.05822362 -0.061771337 0.16418126 -0.09231805 -0.05148803 -0.0710707 -0.06566082
-0.013916618 -0.07098083 -0.0679288 -0.037441466 -0.087681994 0.11230822 0.035400134 0.10152529
-0.17977591 -0.016648268 -0.09182131 -0.018245516 0.10215643 0.028673755 -0.114960395 0.07025334
-0.201661 0.001576324 0.057385765 0.02238889 -0.21570392 0.08755311 0.06870223 -0.13839486
0.14254828 -0.04401686 0.081570975 -0.01056416 0.046569504 0.040109474 0.04199848 -0.08780391
-0.024850661 -0.030475695 0.042417433 -0.022930725 -0.07938117 -0.1539125 -0.011639579 0.1469349
0.056853868 -0.09963883 0.0592895 -0.010124379 0.043375082 -0.0659478 0.12713064 0.04784352
0.02071826 -0.014011507 0.044194575 -0.0060879495 0.05720624 0.09421319 -0.054714963 0.021529214
-0.037325755 0.13282864 0.029284336 0.047698516 0.0976287 0.07841984 -0.18964565 0.031250156
-0.094404526 0.0041511734 -0.017403593 0.009385545 -0.19498038 -0.09765709 -0.09921577 0.1969493
0.069613256 0.0808577 0.062145147 0.023331149 -0.114605546 0.0419726 0.0759862 -0.06134497
-0.009800075 0.034984842 -0.06500784 0.037337925 0.05870875 0.082474105 -0.050421722 0.2150076
0.05604028 -0.108503915 -0.01604083 0.0006197377 0.07791149 -0.08597271 -0.030265344 0.040315
-0.035629805 0.076055385 0.09359001 -0.046891745 -0.11809663 0.03585482 0.1995441 -0.000585705
0.09416843 -0.11882889 -0.18384556 0.11293187 0.026374009 0.1309142 0.15057968 -0.04599996
0.045547362 0.17799821 -0.041883618 0.15375283 0.041442074 -0.050365493 -0.036055032 0.041319765
0.042712428 0.07774799 0.020946307 -0.025454517 -0.023087878 -0.0029776448 0.085799746 0.011740152
-0.02157933 0.010681862 0.072264366 -0.050179943 -0.006125331 -0.07427471 1.7129802e-05 0.06063953
00000000: d14d e83d 36b0 35bd b6f7 fc3d 08c8 2abd
00000010: 1c7b 7d3c df0e 3ebc dfc0 1a3e 02b4 493d
00000020: 34a3 dfbc 5bc1 aebd a13e 27bd ecbe 81bd
00000030: afdc 4f3d 7036 943d b88f 553b 0668 87bd
00000040: b986 c2bd 14c3 563d dc87 813d 4053 ee3d
00000050: 9954 bdbd ee34 513e 07d5 833d 62c6 973d
00000060: d928 f1bc 86a1 5a3c 2886 28bd 4016 103c
00000070: bb30 833e 1beb 56bc af3b f63d eee8 a9bc
00000080: 8446 3dbd 8b0d 7abd 8e7d 11be b5e1 97bd
00000090: 0a6f 813b 3bbe e6bd 6964 8b3d c6ec bdbd
000000a0: be8a 29bd 2950 6d3d 0f92 89bd 02bb 46be
000000b0: 1390 1abe 8a3e 813c 26c2 043c de01 d63d
000000c0: 03b3 a23a 10f7 27bd 077f a5bc 8164 1c3e
000000d0: 17d3 cbbd c2e5 783d a5de 28be 70d8 4bbd
000000e0: 8f27 c63d 92e3 d0bd 07a4 4b3d a7d9 db3d
000000f0: dccc 073d 99fa 9a3c 04f8 0d3d b931 b9bd
00000100: 3525 e1bd df66 2dbd d83e 5cbd b6a2 2a3d
00000110: 4643 55be 614c 0f3d 6c31 093e 2feb 063e
00000120: 3bed 11be d50d eb3c 25de 803c efca 93bd
00000130: 6a8e a03b 3725 22be ebe7 713d 6baf 843d
00000140: 10b1 273d 1f6f 78bd a557 443d 08b5 163e
00000150: 24be aa3d 2027 2dbe 1a1a d3bd 87dd 8dbd
00000160: 1e4e 343d fa6e 863c 6457 7abd 164e 97bd
00000170: f9b6 87bc a154 033c 68fd 08bd 2259 56bd
00000180: 93a3 533d 018c 20bd f814 3cbc 63ed c6bd
00000190: 0cd1 76bd 2a25 85bd 5882 ac3d cf28 a83d
000001a0: 927b 083d a708 c53b c091 2abd 8db8 8f3d
000001b0: b541 22bd c22a 3fbc bd71 0b3e cb28 49bd
000001c0: 5ac5 a83d e47b 6ebd f103 7dbd 221f 283e
000001d0: 3f11 bdbd 1de5 52bd 848d 91bd 2e79 86bd
000001e0: 8702 64bc 665e 91bd 411e 8bbd 395c 19bd
000001f0: 9e92 b3bd da01 e63d bbff 103d 7eec cf3d
00000200: 2d17 38be f361 88bc d00c bcbd 9f77 95bc
00000210: 6437 d13d 39e5 ea3c 5b70 ebbd fce0 8f3d
00000220: 3980 4ebe a89c ce3a 560d 6b3d e868 b73c
00000230: 7de1 5cbe 0c4f b33d c1b3 8c3d 62b7 0dbe
00000240: 2df8 113e 064b 34bd af0e a73d 4c15 2dbc
00000250: aabf 3e3d d549 243d 9906 2c3d 89d2 b3bd
00000260: 9d93 cbbc 2aa8 f9bc e7bd 2d3d 37d9 bbbc
00000270: 9892 a2bd 3d9b 1dbe efb3 3ebc 1a76 163e
00000280: 9adf 683d 710f ccbd 8cd9 723d b9e0 25bc
00000290: 12aa 313d a40f 87bd 892e 023e 91f7 433d
000002a0: 57b9 a93c 8590 65bc 5f05 353d 6c7d c7bb
000002b0: 1751 6a3d d8f2 c03d cc1c 60bd 095e b03c
000002c0: e4e2 18bd 3b04 083e b4e5 ef3c 855f 433d
000002d0: 8ef1 c73d 959a a03d 7832 42be 2a00 003d
000002e0: 2957 c1bd 9106 883b fb91 8ebc d4c5 193c
000002f0: f0a8 47be 7100 c8bd a331 cbbd 14ad 493e
00000300: 6591 8e3d b998 a53d e98b 7e3d f720 bf3c
00000310: 50b6 eabd 76eb 2b3d a79e 9b3d dd44 7bbd
00000320: 7e90 20bc 444c 0f3d d522 85bd a7ef 183d
00000330: 9678 703d 2fe8 a83d 0287 4ebd f42a 5c3e
00000340: 7e8a 653d 4d37 debd 0f68 83bc e575 223a
00000350: 0f90 9f3d 7612 b0bd 07ef f7bc 5721 253d
00000360: 8ff0 11bd edc2 9b3d 1fac bf3d 8f11 40bd
00000370: a5dc f1bd 81dc 123d 4a55 4c3e ff89 19ba
00000380: 61db c03d 905c f3bd 0342 3cbe d348 e73d
00000390: 4e0e d83c 5f0e 063e 8f31 1a3e 746a 3cbd
000003a0: df8f 3a3d 2a45 363e 288e 2bbd 6271 1d3e
000003b0: 2abf 293d 0c4c 4ebd 71ae 13bd ea3e 293d
000003c0: 3af3 2e3d 573a 9f3d 9797 ab3c fe85 d0bc
000003d0: ca22 bdbc 9724 43bb c7b7 af3d c459 403c
000003e0: 23c7 b0bc fa02 2f3c 57ff 933d 7c89 4dbd
000003f0: 00b7 c8bb 571d 98bd f8b1 8f37 2861 783d
