pytorch_LeNet5/model_no_1/fc1_bias.npy (npy, 464 bytes, 1 tensors)

array f4 [84]
000000 64 aa f1 3d 9b 0c b5 bc 09 8f cb bd f9 34 32 bc
       0.118000776 -0.022100737 -0.09939391 -0.0108768875
000010 b0 58 bd bd 4f 7a 46 bd 32 ce 85 bb 0a 60 e7 bd
       -0.092454314 -0.048456486 -0.0040834183 -0.11297615
000020 13 44 12 3e d5 52 c9 3d be 5b 10 3d ef 69 d4 bd
       0.14283781 0.09830252 0.035243742 -0.10371768
000030 80 ee a9 3d d2 23 9b bd 26 4c da 3d 98 94 da bd
       0.082974434 -0.075751916 0.106590554 -0.10672873
000040 42 32 c9 bd 9f 99 2d 3e 19 99 70 bd 72 4b 83 3d
       -0.09824039 0.16953133 -0.058739755 0.064108744
000050 f7 81 5c bc a9 60 f5 3d db 4f 43 bd 04 13 3e 3d
       -0.01345872 0.11981327 -0.047683578 0.046404853
000060 60 a9 b9 3d 20 07 9f bd a2 bd df 3d f5 71 ae 3b
       0.09065509 -0.07765031 0.109248415 0.0053236433
000070 18 78 3d 3d e1 d8 4f 3d a2 b8 67 bd 37 ef f3 bc
       0.04625711 0.05074394 -0.056572564 -0.029777152
000080 c7 22 03 bd e0 7d cb bd b2 dd 61 bc 3d ab fb bd
       -0.032015588 -0.09936118 -0.013785766 -0.122885205
000090 22 f3 a7 bd b4 62 9d 3d f5 7f 1c bd 43 87 9e bd
       -0.08200671 0.07684842 -0.038207967 -0.07740643
0000a0 38 31 af bd 75 12 59 3c ef e8 bf 3c de 4f 07 3c
       -0.085543096 0.013249029 0.023426501 0.008258788
0000b0 88 7f c4 bd 21 e1 9f bd a3 bc e3 3c 36 ae eb bb
       -0.09594637 -0.07806612 0.02779991 -0.0071923984
0000c0 62 89 83 3d 11 7f bb bc 8a 8e 88 bd 32 41 03 3e
       0.06422688 -0.022887738 -0.06667812 0.12817839
0000d0 e0 3e 48 3d 7c cb 02 3e 07 a4 f3 bd 0c 27 2a bd
       0.048888087 0.12772936 -0.1189652 -0.041541144
0000e0 4d c9 27 3d 3a fb ca 3d 7c 8c 60 3d 66 16 c1 bd
       0.04096346 0.09911199 0.054821476 -0.094281
0000f0 59 dc c8 bd ca 11 d9 3c d3 a7 84 bc 31 f2 b4 bd
       -0.09807653 0.02649774 -0.016193306 -0.08835257
000100 df bd 2e 3e 25 2c be bd ef be 68 3d a1 88 96 bd
       0.17064618 -0.09285764 0.056822713 -0.07350279
000110 7b 7b 90 bb 3d 4c e5 ba 6a 2a 15 bd 8c 70 de 3d
       -0.0044092513 -0.0017494034 -0.036417402 0.1086131
000120 c9 c4 dd bd d4 5b 03 3e 06 a7 9f bd 8f 06 92 3d
       -0.108285494 0.12827998 -0.07795529 0.07130157
000130 4e fa a5 bd c4 4e 86 3b c5 bf 01 3d e0 12 27 3e
       -0.081043825 0.004098745 0.031677026 0.16315794
000140 07 5c 6f bc 26 44 19 3e dc 61 ac 3d 28 a1 fa bc
       -0.014609343 0.14967403 0.08417103 -0.030594423
