pytorch_LeNet5/model_no_4/fc1_weight.npy (npy, 40448 bytes, 1 tensors)

array f4 [84, 120]
-0.25746167 0.31750044 0.2026549 0.07531361 0.043553147 -0.08483408 -0.048962247 0.08490921
0.20699927 0.04828475 -0.064708225 0.07668078 -0.24320336 0.25454122 0.18516704 -0.25571257
-0.26646516 0.30763322 0.06452514 -0.0861687 0.16650867 -0.08429622 -0.21418709 0.18338987
-0.13901746 -0.17195792 0.084864214 -0.009427802 -0.021870913 0.08236202 0.07136264 0.015588903
-0.039083768 -0.06967482 -0.0049641863 0.0041298647 -0.03649666 -0.119542025 -0.013803147 -0.073834606
-0.01225852 -0.02822602 0.19261399 -0.0021577037 -0.003768867 0.05374299 -0.35125417 -0.08874029
-0.025105722 0.005149566 0.01725104 -0.054166127 -0.034900047 0.06952154 -0.05664948 -0.063455604
-0.06706859 0.11146174 -0.3001604 0.29252046 -0.029186137 -0.082710646 -0.049543023 -0.043690592
0.06956827 -0.1217737 -0.04524123 -0.045196146 0.0842399 0.16240382 -0.023416555 -0.06773391
0.14003105 -0.28205448 -0.02378419 0.282741 -0.031441346 0.15193105 0.084033124 0.03344561
-0.041260116 0.31779036 -0.057703353 0.20924959 0.028991045 0.16163503 0.08354549 -0.21188283
-0.1666475 -0.10779969 -0.007982743 -0.27965197 -0.16086413 -0.046460446 0.076119624 -0.008547272
0.07591388 0.22497413 0.06762818 0.0051209135 0.07749628 -0.040727787 -0.23047164 -0.15317053
-0.11732123 -0.028997634 0.3248038 0.054380942 0.022306846 -0.024797471 0.16331853 -0.024580166
0.015279516 -0.05856994 0.036318276 0.08651045 0.02166333 0.05672208 -0.08437532 -0.052169576
0.0076463167 0.058678586 -0.04796888 -0.06779412 0.054946765 -0.08342122 0.040647343 -0.015149664
-0.041078836 0.09081123 -0.048101306 -0.07659052 -0.062993206 0.049725313 -0.0134493075 -0.089024186
0.0911547 -0.076334156 0.0124139525 0.027731657 -0.095123306 0.062931985 -0.061353568 -0.043787118
-0.09359275 0.030043783 0.04875198 0.00047155443 -0.06876084 0.070654444 0.07165733 -0.05611634
-0.062213477 0.041140717 -0.06255898 0.09162157 -0.084319815 -0.08215045 0.05476288 -0.059425276
-0.004928008 0.022062603 -0.07873959 0.016400265 -0.037921388 0.06261245 -0.087791525 0.030866083
-0.039404593 0.0015898102 -0.0005668633 0.06363453 0.025593182 0.07156901 0.05136992 0.06761628
-0.08278701 -0.06551019 0.008403449 -0.031902876 -0.016715538 0.06637846 0.054439545 -0.048286695
0.047885194 -0.09626342 0.063550554 -0.016801119 -0.05583625 -0.026659125 0.00822436 0.059645154
0.060720887 -0.084920354 -0.032089952 0.04387227 -0.065983444 -0.025301833 -0.061857097 0.06048236
0.0122254705 0.0030604724 0.023999231 -0.018390315 -0.012369655 0.051349226 -0.07272389 -0.044632364
-0.08439951 -0.01835461 -0.08120514 0.043211635 0.0039037317 -0.010402546 0.01847344 0.05124417
-0.071282834 0.06839814 0.021733057 -0.1077112 0.017704343 -0.051205657 0.010609381 -0.05047481
0.0527703 0.022993136 -0.072512366 0.046622213 0.07126953 0.049637772 0.0439582 0.087470375
0.047806658 -0.031168627 0.08199722 0.04959357 0.079915784 -0.07842967 0.0078399675 0.058810912
-0.07465214 -0.045028973 -0.100939915 0.06483072 -0.063150644 0.05216877 -0.03744036 -0.073077194
-0.08092299 -0.042246483 0.043167286 -0.059735235 0.055933345 0.06429742 -0.05152039 -0.077707164
00000000: 04d2 83be 6b8f a23e c484 4f3e 063e 9a3d
00000010: c964 323d 7dbd adbd a38c 48bd e1e4 ad3d
00000020: 9ef7 533e 3bc6 453d bf85 84bd d00a 9d3d
00000030: 4d0a 79be 3a53 823e 6e9c 3d3e c2ec 82be
00000040: 1f6e 88be 1a82 9d3e c225 843d 3779 b0bd
00000050: 4081 2a3e 7fa3 acbd dc53 5bbe 8eca 3b3e
00000060: 985a 0ebe bd15 30be 4acd ad3d 1177 1abc
00000070: a12a b3bc 6bad a83d 9326 923d 9968 7f3c
00000080: 4d16 20bd acb1 8ebd 9daa a2bb d153 873b
00000090: 867d 15bd 73d2 f4bd 9826 62bc 9936 97bd
000000a0: f6d7 48bc 413a e7bc 9a3c 453e 4368 0dbb
000000b0: 19ff 76bb 9c21 5c3d 96d7 b3be 78bd b5bd
000000c0: 84aa cdbc b1bd a83b 0e52 8d3c 4ddd 5dbd
000000d0: 5af3 0ebd 4f61 8e3d 4909 68bd 03f5 81bd
000000e0: 425b 89bd 0e46 e43d a0ae 99be 3ec5 953e
000000f0: c417 efbc 3364 a9bd a0ed 4abd e8f4 32bd
00000100: cf79 8e3d 7d64 f9bd de4e 39bd 981f 39bd
00000110: f885 ac3d 304d 263e 13d4 bfbc 14b8 8abd
00000120: 4d64 0f3e 7269 90be 10d7 c2bc 6ec3 903e
00000130: a4c8 00bd d093 1b3e 8f19 ac3d 44fe 083d
00000140: 5e00 29bd 6bb5 a23e 5a5a 6cbd 8645 563e
00000150: a17e ed3c a783 253e e619 ab3d d0f7 58be
00000160: a4a5 2abe 15c6 dcbd 0dca 02bc 8b2e 8fbe
00000170: 91b9 24be 4f4d 3ebd 9be4 9b3d db09 0cbc
00000180: bc78 9b3d 9e5f 663e a580 8a3d 56cd a73b
00000190: 5fb6 9e3d 2ed2 26bd c200 6cbe bcd8 1cbe
000001a0: 1d46 f0bd 728c edbc af4c a63e 8dbe 5e3d
000001b0: d9bc b63c 1124 cbbc f93c 273e 585c c9bc
000001c0: ef56 7a3c 09e7 6fbd 79c2 143d 642c b13d
000001d0: 4c77 b13c 6955 683d f8cc acbd c4af 55bd
000001e0: f48d fa3b f558 703d 047b 44bd a5d7 8abd
000001f0: dc0f 613d bfd8 aabd d47d 263d 4c36 78bc
00000200: 4842 28bd 3dfb b93d e005 45bd 7edb 9cbd
00000210: 9502 81bd c5ac 4b3d 7c5a 5cbc 5052 b6bd
00000220: 51af ba3d 1555 9cbd e463 4b3c 802d e33c
00000230: 02d0 c2bd 7ce2 803d e14d 7bbd 1f5a 33bd
00000240: 8ead bfbd 611e f63c 28b0 473d f73a f739
00000250: 7cd2 8cbd 47b3 903d 14c1 923d 3fda 65bd
00000260: 8fd3 7ebd 2b83 283d ec1e 80bd 17a4 bb3d
00000270: deaf acbd 7f3e a8bd 0b4f 603d eb67 73bd
00000280: 217b a1bb a2bc b43c 3942 a1bd d959 863c
00000290: 7553 1bbd f53a 803d 0bcc b3bd deda fc3c
000002a0: b666 21bd 2e61 d03a 8d99 14ba d252 823d
000002b0: cba8 d13c c692 923d 4469 523d 677a 8a3d
000002c0: 3c8c a9bd 352a 86bd 9fae 093c 97ac 02bd
000002d0: 06ef 88bc 6ef1 873d 00fc 5e3d 45c8 45bd
000002e0: 4423 443d c225 c5bd cb26 823d 80a2 89bc
000002f0: 8db4 64bd 3d64 dabc 77bf 063c 7a4e 743d
00000300: 77b6 783d b9ea adbd c170 03bd 69b3 333d
00000310: 5422 87bd ca45 cfbc de5d 7dbd 5abc 773d
00000320: 574d 483c 3592 483b 099a c43c 49a7 96bc
00000330: 18aa 4abc 9153 523d 43f0 94bd 6dd0 36bd
00000340: a6d9 acbd 685c 96bc e14e a6bd affe 303d
00000350: c0d5 7f3b 716f 2abc 9d55 973c 68e5 513d
00000360: bcfc 91bd 5314 8c3d 8609 b23c b197 dcbd
00000370: b308 913c 06bd 51bd f8d2 2d3c adbe 4ebd
00000380: ac25 583d 1a5c bc3c 5d81 94bd eff6 3e3d
00000390: c2f5 913d fa50 4b3d 830d 343d ab23 b33d
000003a0: ead0 433d 5955 ffbc 29ee a73d a122 4b3d
000003b0: e3aa a33d bc9f a0bd 3573 003c b6e3 703d
000003c0: 39e3 98bd 4d70 38bd 96b9 cebd f8c5 843d
000003d0: 2055 81bd ecae 553d 105b 19bd 7fa9 95bd
000003e0: f4ba a5bd a60a 2dbd 2ed0 303d efac 74bd
000003f0: 5d1a 653d 5eae 833d 0b07 53bd ef24 9fbd
