pytorch_LeNet-5/model_no_8/conv1_weight.npy (npy, 728 bytes, 1 tensors)

array f4 [6, 1, 5, 5]
0	0xbe5fa4dc	-0.21840233
1	0xbe1be10a	-0.15222564
2	0x3e0e933c	0.13923353
3	0x3d9114c4	0.07084039
4	0x3d5f7536	0.05455514
5	0x3e2d3ac8	0.16916955
6	0x3e10bf0e	0.14135382
7	0xbd521805	-0.051292438
8	0x3d3089d2	0.043100186
9	0xbe3633be	-0.17793176
10	0xbbfea721	-0.007771388
11	0x3d3cec47	0.04612377
12	0x3e10c020	0.1413579
13	0x3d3460ca	0.044037618
14	0x3d39a501	0.045323376
15	0x3cbb8a9c	0.022893243
16	0xbd8e508c	-0.06948957
17	0xbe3e4a9b	-0.18583147
18	0x3e161c2c	0.14659184
19	0xbdf3cd6c	-0.119044155
20	0x3ddf938e	0.10916816
21	0xbe3d9a01	-0.18515779
22	0xbe05d448	-0.1306926
23	0x3e30ae07	0.17253886
24	0x3e090b4f	0.1338322
25	0x3e2a65a1	0.16640331
26	0x3c691cc5	0.014228051
27	0x3e01d7de	0.12680003
28	0x3e01dce4	0.1268192
29	0x3d3afcb9	0.04565117
30	0xbe58b536	-0.21162876
31	0xbda6f7c0	-0.08152723
32	0xbd3f9955	-0.04677709
33	0x3df0455b	0.117319785
34	0xbdd41708	-0.10355955
35	0xbe6b19d0	-0.22959065
36	0xbe25c8e0	-0.16189909
37	0xbd9e55f0	-0.07731235
38	0xbe7441c4	-0.23853213
39	0x3d15c1ee	0.0365619
40	0x3d9a9ca4	0.07549408
41	0xbe559797	-0.20858608
42	0xbe6b9845	-0.23007305
43	0x3cacbe1c	0.021086745
44	0xbe5fe463	-0.21864466
45	0x3daae8b4	0.08345166
46	0x3e6000ff	0.2187538
47	0xbcc93714	-0.024562396
48	0x3cc70e3b	0.024298778
49	0xbc971017	-0.01844029
50	0xbd04722d	-0.03233545
51	0xbe8a63e7	-0.27029344
52	0x3d5dadc3	0.05412079
53	0xbd920950	-0.071306825
54	0x3d63d225	0.05562033
55	0x3e01bed6	0.12670454
56	0xba76ac9b	-0.00094098755
57	0xbe105950	-0.1409657
58	0xbe25c478	-0.16188228
59	0xbc51110d	-0.012760413
60	0x3e176927	0.14786206
61	0x3e43f959	0.19138087
62	0xbd1f83d8	-0.038944095
63	0x3e086ccc	0.13322753
64	0x3c14ad85	0.009074573
65	0x3d9ff719	0.07810802
66	0x3e6e778a	0.23287788
67	0x3e8a11c9	0.26966694
68	0x3d549360	0.05189836
69	0x3e0b237c	0.13587755
70	0xbe7db0c7	-0.24774466
71	0xbe581c61	-0.21104576
72	0xbd903b94	-0.070426136
73	0xbe3dbe45	-0.18529613
74	0x3c0ecc5a	0.008715713
75	0xbe23d062	-0.1599746
76	0xbdf46225	-0.11932782
77	0x3d3f3ea0	0.046690583
78	0x3d267a77	0.040644135
79	0x3d08681d	0.033302415
80	0x3e2cb162	0.16864541
81	0xbc4a78b3	-0.0123578785
82	0xbd9eb04e	-0.07748471
83	0x3e28b8a2	0.16476682
84	0xbcbb228e	-0.022843625
85	0xbdce7462	-0.10080792
86	0xbe294444	-0.16529948
87	0xbd7cfb23	-0.06176294
88	0xbd8006c9	-0.06251294
89	0x3e8d4f5a	0.27599603
90	0x3d15647b	0.03647278
91	0x3e04d6bb	0.12972538
92	0xbe6e7093	-0.23285131
93	0xbe59de28	-0.21276152
94	0xbd307ae1	-0.043085936
95	0x3e776762	0.24160531
96	0x3c471072	0.012149917
97	0xbe22fdd3	-0.15917139
98	0xbdc7285a	-0.09724493
99	0x3e35b9bf	0.17746638
100	0x3e2ac1a4	0.1667543
101	0x3dddb057	0.1082465
102	0x3d1a12a3	0.03761543
103	0xbc6d12aa	-0.014469782
104	0xbd375037	-0.044754233
105	0xbc758071	-0.014984236
106	0xbe12da89	-0.14341177
107	0xbe0814fc	-0.13289255
108	0xbe543682	-0.20723918
109	0x3de7efdc	0.113250464
110	0x3e11e69c	0.14248127
111	0x3c9868c0	0.018604636
112	0xbd316e4f	-0.04331809
113	0x3cdde311	0.027085813
114	0xbe0e24aa	-0.13881174
115	0x3e1c4388	0.15260136
116	0xbdba3a49	-0.09093148
117	0x3aaed2ca	0.0013337967
118	0xbe772fcb	-0.24139325
119	0x3e365c4f	0.1780865
120	0x3e1ce0b8	0.15320098
121	0x3d084f2b	0.033278625
122	0xbdf8e5b3	-0.12153187
123	0xbdcddf3b	-0.100523435
124	0x3e27a996	0.16373286
125	0x3e2ca440	0.16859531
126	0x3cc87ea8	0.024474457
127	0x3e1345a2	0.14382032
128	0xbe16147e	-0.14656255
129	0x3d807493	0.06272235
130	0x3d853608	0.06504446
131	0x3e1b0fb5	0.1514271
132	0xbe2b3d0c	-0.16722506
133	0xbd14d9d3	-0.036340546
134	0x3d3c8bb2	0.04603166
135	0xbe81b262	-0.25331408
136	0xbe80c174	-0.25147593
137	0xbe29efdc	-0.16595405
138	0xbe0e3dcc	-0.13890761
139	0xbe2f586c	-0.17123574
140	0x3dfb5ffd	0.12274168
141	0xbd5f6c15	-0.054546434
142	0x3db7685e	0.08955453
143	0x3e365631	0.17806317
144	0x3e26ffa9	0.16308464
145	0x3d566898	0.052345842
146	0x3cac49d5	0.0210313
147	0x3d90cb17	0.07069986
148	0xbd3f7650	-0.04674369
149	0x3e0d37b9	0.13790788
