pytorch_LeNet-5/model_no_12/lenet_weights_epoch(10)/conv2_weight.npy (npy, 9728 bytes, 1 tensors)

array f4 [16, 6, 5, 5]
0.00760678 -0.075685866 -0.035654373 -0.022072276 -0.06664848 0.09236679 -0.0024872664 -0.062841184
0.010611292 -0.12568814 0.07783596 -0.040715624 -0.032015726 -0.060147066 -0.07824383 0.010070658
0.039786637 -0.01943113 -0.0144733265 0.10274685 0.033357732 -0.02262313 -0.079040214 0.0570804
0.073856816 0.035574008 -0.056579478 0.010922319 0.13487391 0.009077945 0.05913524 -0.04227806
0.03233575 0.011536493 0.06846345 -0.116201445 -0.032767877 -0.1133157 -0.120940484 -0.0909119
-0.057434637 -0.07673937 0.039744604 -0.07218093 -0.04352846 0.052664325 0.064239055 -0.0014803791
0.035798583 0.08360243 0.07553771 -0.033128217 0.042554595 0.007709833 -0.03211087 0.084043734
0.0023688949 -0.058447186 0.012640604 0.021399558 0.05316514 0.035910457 0.013672175 0.063427344
0.02797691 -0.07999899 -0.021463199 0.10120292 -0.00399585 -0.059506156 -0.011332796 -0.1487463
-0.06289971 -0.11323674 -0.14606841 0.056860253 -0.0023642995 -0.054744374 -0.10508379 -0.030717779
0.099156216 0.07854884 -0.08519945 -0.06333168 -0.048203845 -0.24268359 -0.09072404 -0.06094495
-0.0010266551 -0.07032466 -0.08249121 -0.064220056 -0.07838766 -0.15988001 -0.23842964 0.099016905
0.046201646 0.03601501 -0.007521098 -0.039056208 0.06348361 0.01403234 0.17102319 0.019795325
0.12829085 0.03634694 -0.008808189 0.1296027 0.08057396 0.07183492 0.07402239 0.08415175
0.0071250037 -0.021814842 0.020941148 -0.074052386 -0.06131998 -0.09901005 0.021713007 -0.009375853
-0.026046256 -0.02058717 -0.09841975 -0.094939776 -0.0776749 -0.21090752 -0.2328116 -0.23905887
-0.18268092 -0.1060935 0.02942887 -0.07002774 -0.11618435 -0.1980791 -0.18650304 0.09123053
0.10972832 0.108168855 0.09468573 0.026101884 0.05361761 0.006752484 0.06964052 0.11012188
0.08878134 -0.08128033 -0.015188151 -0.045738954 -0.11279496 -0.10113853 -0.045680005 -0.095035315
-0.03046189 -0.07068954 0.065406345 -0.13454364 -0.045590166 -0.0009180013 -0.10111854 0.02305939
-0.08851177 0.02215348 -0.03679096 -0.11137306 -0.10419703 0.03923625 -0.088897705 -0.07611199
-0.01751941 -0.06786283 0.04463327 -0.056879576 0.092781276 0.14102174 0.17529382 -0.01005212
-0.05953574 -0.07627859 -0.06701605 -0.115346186 0.007412609 -0.07678655 -0.10063254 -0.12281607
-0.098274894 -0.0060250005 -0.13712324 -0.21301648 -0.12318894 -0.17274104 -0.04934186 0.027998632
-0.01438538 -0.11652705 -0.031487558 0.09938273 0.028759662 -0.007009223 0.05638501 -0.043822628
-0.025260853 -0.1233511 0.0132495975 -0.062045958 0.052715786 0.006338535 -0.014901795 -0.004879691
0.0041788523 -0.078016974 0.09058995 0.10016892 0.18020068 0.068925 0.07472516 -0.006252265
0.046864085 0.030024964 0.085249715 0.017206587 -0.0034883455 0.023704024 0.034858305 0.017190676
-0.058334325 -0.017172983 -0.008562291 0.012156475 -0.06287305 -0.064626694 -0.079017095 -0.01905619
0.09247775 0.12110508 0.1437184 -0.09287408 -0.09661292 0.04308532 0.092915624 0.12522313
-0.054098584 0.002140675 -0.060677826 -0.02640433 0.002750118 -0.009152467 -0.062467147 -0.03459042
0.06483277 -0.012906786 -0.01379208 -0.10409379 -0.09984689 -0.11822997 -0.11166335 0.022693852
00000000: 4c42 f93b 3101 9bbd 520a 12bd ebd0 b4bc
00000010: 007f 88bd cd2a bd3d 6801 23bb e1b2 80bd
00000020: fcda 2d3c 64b4 00be 7668 9f3d 6dc5 26bd
00000030: ec22 03bd c55c 76bd 4d3e a0bd 67ff 243c
00000040: 50f7 223d 082e 9fbc 8821 6dbc f16c d23d
00000050: 1ea2 083d 2454 b9bc d6df a1bd 23cd 693d
00000060: 3e42 973d 0db6 113d e2bf 67bd 87f3 323c
00000070: 631c 0a3e a9bb 143c cb37 723d c22b 2dbd
00000080: 7e72 043d 8f03 3d3c 9136 8c3d 06fb edbd
00000090: 9c37 06bd 1012 e8bd a5af f7bd 0530 babd
000000a0: 9540 6bbd 8829 9dbd 3dcb 223d 98d3 93bd
000000b0: e64a 32bd 8cb6 573d c48f 833d 4809 c2ba
000000c0: 89a1 123d c037 ab3d 84b3 9a3d 74b1 07bd
000000d0: ba4d 2e3d c4a2 fc3b b086 03bd 1f1f ac3d
000000e0: 763f 1b3b 5166 6fbd 891a 4f3c 204e af3c
000000f0: b1c3 593d d816 133d 4201 603c 32e6 813d
00000100: d52f e53c 83d6 a3bd 97d3 afbc 7a43 cf3d
00000110: 9fef 82bb babc 73bd 31ad 39bc f350 18be
00000120: 90d1 80bd aae8 e7bd f592 15be 4ce6 683d
00000130: 5df2 1abb a33b 60bd 2c36 d7bd daa3 fbbc
00000140: 6a12 cb3d 37de a03d 0d7d aebd 0ab4 81bd
00000150: 6571 45bd 0c82 78be 87cd b9bd 69a1 79bd
00000160: d490 86ba 6006 90bd 27f1 a8bd ce85 83bd
00000170: b689 a0bd 96b7 23be e626 74be 60c9 ca3d
00000180: f03d 3d3d 7a84 133d 8b73 f6bb 67f9 1fbd
00000190: b203 823d e6e7 653c b420 2f3e ce29 a23c
000001a0: ad5e 033e 87e0 143d 3950 10bc 92b6 043e
000001b0: f603 a53d 301e 933d 0d99 973d c157 ac3d
000001c0: dd78 e93b 0ab5 b2bc c58c ab3c c7a8 97bd
000001d0: a92a 7bbd c8c5 cabd 7adf b13c 2e9d 19bc
000001e0: f55e d5bc 6da6 a8bc 4b90 c9bd c96f c2bd
000001f0: 0514 9fbd 24f8 57be 2a66 6ebe d9cb 74be
00000200: b510 3bbe 8d47 d9bd d014 f13c b46a 8fbd
00000210: 0ff2 edbd 3fd5 4abe a7fa 3ebe 12d7 ba3d
00000220: 3eb9 e03d a287 dd3d 98ea c13d 9ed3 d53c
00000230: 249e 5b3d f143 dd3b b09f 8e3d 9587 e13d
00000240: fed2 b53d 4d76 a6bd b9d7 78bc c558 3bbd
00000250: 0b01 e7bd b821 cfbd f51a 3bbd e0a1 c2bd
00000260: 378b f9bc adc5 90bd c3f3 853d cfc5 09be
00000270: c1bc 3abd 06a6 70ba 3d17 cfbd 0ce7 bc3c
00000280: a945 b5bd 377b b53c 1eb2 16bd 8f17 e4bd
00000290: 4165 d5bd 31b6 203d 0010 b6bd 9ae0 9bbd
000002a0: de84 8fbc abfb 8abd 60d1 363d 8ffa 68bd
000002b0: 1c04 be3d 0168 103e 3980 333e a6b1 24bc
000002c0: c0db 73bd f337 9cbd b63f 89bd 9f3a ecbd
000002d0: 79e5 f23b 4442 9dbd 6f18 cebd fe86 fbbd
000002e0: 5944 c9bd 5e6d c5bb 096a 0cbe fe20 5abe
000002f0: 7c4a fcbd 07e3 30be b11a 4abd 635d e53c
00000300: a8b0 6bbc bca5 eebd 19f9 00bd 2c89 cb3d
00000310: 6299 eb3c a0ad e5bb f8f3 663d 5b7f 33bd
00000320: d9ef cebc 809f fcbd d714 593c e723 7ebd
00000330: 82ec 573d 7cb3 cf3b a926 74bc d1e5 9fbb
00000340: c1ee 883b 5dc7 9fbd 3987 b93d 5d25 cd3d
00000350: 8786 383e 8d28 8d3d 8109 993d cddf ccbb
00000360: 8ef4 3f3d eaf6 f53c 6797 ae3d d4f4 8c3c
00000370: ba9c 64bb f12e c23c 95c7 0e3d 76d3 8c3c
00000380: f9ef 6ebd 5bae 8cbc da48 0cbc f42b 473c
00000390: 96c3 80bd 005b 84bd b7d3 a1bd ba1b 9cbc
000003a0: f964 bd3d f105 f83d eb2a 133e c434 bebd
000003b0: ffdc c5bd 3c7a 303d 8c4a be3d 7e3a 003e
000003c0: 7a96 5dbd 914a 0c3b 5089 78bd e54d d8bc
000003d0: 533b 343b 3bf4 15bc 8ddd 7fbd afae 0dbd
000003e0: 0bc7 843d fc76 53bc 2df8 61bc 202f d5bd
000003f0: 877c ccbd 8e22 f2bd c1af e4bd 75e8 b93c
