pytorch_LeNet5/lenet_weights_epoch(10)/fc3_weight.npy (npy, 3488 bytes, 1 tensors)

array f4 [10, 84]
0.014581957 -0.22451423 -0.320851 -0.104296185 0.19532996 0.16463152 0.25669956 -0.34538746
-0.24674682 0.21981774 -0.0738426 -0.10426882 -0.41103792 0.1171678 0.060397483 0.07828994
0.23357864 -0.1387847 -0.17452192 0.23130874 0.078191 0.2551946 -0.12856908 -0.19579211
0.25757757 -0.37079155 0.1826418 0.06327228 -0.37518197 -0.011292453 -0.1790147 0.22179599
-0.33252168 -0.20339143 0.1947884 -0.40704235 -0.13277578 0.25860855 -0.3604083 0.2537769
-0.25369194 -0.03762093 0.17963172 -0.28327388 -0.07557406 -0.20382027 0.16442284 -0.45588896
-0.20398296 -0.23688532 0.1925107 -0.33548695 -0.31892103 -0.038186707 0.21116093 -0.3100128
-0.2752604 0.10478605 -0.3095226 -0.34000638 -0.15730579 -0.28429756 -0.29331222 0.06741885
-0.2273648 -0.34569976 -0.3236255 -0.2694555 0.27047524 -0.4188473 0.28418112 -0.30711284
0.29812196 -0.2140494 0.25297746 -0.38775334 0.33172092 -0.2751672 -0.23818743 0.2056637
-0.30417788 -0.28640258 -0.31839442 -0.25645465 -0.35313237 0.18539083 0.23994358 0.270987
-0.16593379 -0.31231186 -0.17038766 -0.15555081 -0.13307674 -0.048479136 0.2739778 0.19319049
-0.1443003 -0.28846112 -0.2695533 -0.33395857 0.25801516 0.24765666 -0.096281566 -0.48106107
-0.2088756 -0.010687768 -0.27395058 -0.27788517 -0.36605453 0.072226785 0.08856244 -0.31159917
0.18533394 -0.23286091 -0.18986042 0.28145012 0.28378975 -0.11921112 -0.22716533 -0.11301458
-0.028417801 0.2206998 -0.24765272 -0.039243758 0.20911112 -0.32158032 -0.19644865 -0.079221725
-0.0014881544 0.13516544 -0.24604182 0.009044968 -0.13689418 -0.198708 0.2728147 -0.37784567
-0.23459297 -0.051452465 -0.25518274 0.25644016 -0.21284541 -0.35083553 0.27636126 0.21612641
-0.102448516 0.1493116 -0.10752206 -0.023700021 -0.31392473 -0.1844685 0.25823283 -0.23856287
0.111643046 0.120108366 -0.42765072 -0.21460697 0.2172989 -0.13542052 -0.00566621 -0.10322003
-0.3417793 -0.2812419 -0.27973005 0.020023435 0.17336798 0.2540783 -0.15200053 0.24497318
0.3416124 -0.25065857 0.021723645 -0.034663893 -0.15224668 -0.10509975 -0.29736692 -0.16084018
0.12625207 0.3018243 0.024576161 -0.030143617 0.23649275 -0.18065879 -0.026335685 -0.3291148
-0.2851993 -0.20637678 -0.26487362 0.023610022 0.20878673 -0.24281847 0.09290863 -0.39956054
0.22079276 -0.40891433 -0.16368824 0.04040702 -0.22495817 -0.24157372 -0.39566302 0.1961933
-0.0764601 0.24211206 -0.34075224 0.27420965 0.039609395 -0.22239336 0.24788904 -0.29860008
0.19900109 -0.2601415 0.2497246 -0.47166976 0.29247785 -0.35879886 -0.3359996 -0.23944595
0.1649048 0.29387978 -0.23229109 0.27356273 -0.097697645 -0.10937084 -0.2571542 -0.38169578
-0.14059909 0.0038637363 0.052769482 -0.23065083 -0.14554392 0.25594112 -0.40600255 0.25354296
-0.40005615 -0.33499283 0.18431611 0.08774633 0.01833426 -0.058757957 0.19267143 -0.31032294
-0.24183588 -0.084810965 -0.50927424 -0.36164507 0.0027189115 -0.23171222 -0.24251795 0.18590538
-0.3005742 0.06921342 0.26052457 -0.31758147 -0.26004815 -0.32713887 -0.19913357 0.11115963
00000000: 29e9 6e3c 0fe7 65be 9546 a4be 3d99 d5bd
00000010: 9404 483e 2a95 283e 206e 833e a0d6 b0be
00000020: 33ab 7cbe e717 613e ca3a 97bd e48a d5bd
00000030: 9073 d2be acf5 ef3d 5a63 773d 7a56 a03d
00000040: 3d2f 6f3e 941d 0ebe e0b5 32be 33dc 6c3e
00000050: 9a22 a03d dea8 823e 9da7 03be ba7d 48be
00000060: 35e1 833e 64d8 bdbe 7406 3b3e e694 813d
00000070: da17 c0be fb03 39bc a14f 37be 7d1e 633e
00000080: 4840 aabe d845 50be 9c76 473e db67 d0be
00000090: 60f6 07be 5768 843e 7087 b8be 0cef 813e
000000a0: e9e3 81be 6718 1abd 61f1 373e 4609 91be
000000b0: 93c6 9abd 43b6 50be 765e 283e 476a e9be
000000c0: e9e0 50be 1192 72be 8621 453e f2c4 abbe
000000d0: 9e49 a3be aa69 1cbd 923a 583e ffb9 9ebe
000000e0: eeee 8cbe 129a d63d bf79 9ebe 5115 aebe
000000f0: c514 21be 738f 91be 052d 96be e512 8a3d
00000100: 51d2 68be 8fff b0be 3eb2 a5be 12f6 89be
00000110: bb7b 8a3e 2773 d6be 3080 913e e53d 9dbe
00000120: 71a3 983e c42f 5bbe 4386 813e 9b87 c6be
00000130: 53d7 a93e b7e2 8cbe 68e7 73be 8199 523e
00000140: 34bd 9bbe 5ca3 92be 9804 a3be 064e 83be
00000150: c4cd b4be 18d7 3d3e c5b3 753e cfbe 8a3e
00000160: 8cea 29be 57e7 9fbe 1a7a 2ebe b648 1fbe
00000170: 4545 08be 0f92 46bd d146 8c3e bad3 453e
00000180: 75c3 13be 2db1 93be e402 8abe 9efc aabe
00000190: 901a 843e b599 7d3e 452f c5bd a34d f6be
000001a0: 7ce3 55be c01b 2fbc 4043 8cbe f746 8ebe
000001b0: 806b bbbe a3eb 933d 3960 b53d ed89 9fbe
000001c0: 2ec8 3d3e 1773 6ebe c56a 42be 3b1a 903e
000001d0: e44c 913e f624 f4bd 079e 68be 3074 e7bd
000001e0: 73cc e8bc 21ff 613e ad98 7dbe 10be 20bd
000001f0: 3a21 563e 2da6 a4be d629 49be 003f a2bd
00000200: 2d0e c3ba cf68 0a3e 63f2 7bbe 5831 143c
00000210: fd2d 0cbe 1c7a 4bbe 5eae 8b3e fd74 c1be
00000220: 2439 70be d2bf 52bd 50a7 82be 204c 833e
00000230: 26f4 59be b7a0 b3be 397f 8d3e 3e50 5d3e
00000240: 87d0 d1bd 24e5 183e 8734 dcbd 8c26 c2bc
00000250: beba a0be 4fe5 3cbe 1837 843e d349 74be
00000260: 1ca5 e43d 60fb f53d 09f5 dabe eec1 5bbe
00000270: 9a83 5e3e adab 0abe 9dab b9bb 0665 d3bd
00000280: b2fd aebe f0fe 8fbe c738 8fbe 3008 a43c
00000290: 6087 313e 8d16 823e 07a6 1bbe 40da 7a3e
000002a0: d2e7 ae3e 5256 80be c9f5 b13c bafb 0dbd
000002b0: 8ee6 1bbe 8a3e d7bd 7a40 98be 4ab3 24be
000002c0: 3948 013e b788 9a3e f253 c93c bfef f6bc
000002d0: 282b 723e 9efe 38be efbd d7bc bc81 a8be
000002e0: a505 92be 6f54 53be 849d 87be ce69 c13c
000002f0: 30cc 553e 68a5 78be e146 be3d 3393 ccbe
00000300: 7f17 623e 385d d1be e49d 27be d581 253d
00000310: 6f5b 66be 1a5f 77be 5894 cabe e5e6 483e
00000320: 1d97 9cbd 39ec 773e 1477 aebe 3565 8c3e
00000330: 763d 223d 16bb 63be a0d6 7d3e 1ce2 98be
00000340: f1c6 4b3e 4431 85be ceb7 7f3e b37e f1be
00000350: a8bf 953e 7cb4 b7be 2408 acbe 5231 75be
00000360: cedc 283e 6977 963e b7dd 6dbe 6a10 8c3e
00000370: b415 c8bd d2fd dfbd b7a9 83be a16d c3be
00000380: 35f9 0fbe bd36 7d3b d024 583d bb2f 6cbe
00000390: 7709 15be b70a 833e 91df cfbe 62d0 813e
000003a0: 29d4 ccbe 2e84 abbe 5dbd 3c3e 59b4 b33d
000003b0: bb31 963c 2fac 70bd a94b 453e a6e2 9ebe
000003c0: d3a3 77be 5fb1 adbd cc5f 02bf 8b29 b9be
000003d0: c42f 323b f845 6dbe a056 78be fb5d 3e3e
000003e0: dde4 99be c4bf 8d3d 7a63 853e 0a9a a2be
000003f0: 0825 85be bf7e a7be ace9 4bbe a9a7 e33d
