pytorch_LeNet-5/model_no_18/lenet_weights_epoch(10)/conv2_weight.npy (npy, 9728 bytes, 1 tensors)

array f4 [16, 6, 5, 5]
0	0x3d925961	0.07145954
1	0xbdd25931	-0.10270918
2	0x3dccc04a	0.09997614
3	0x3ddc6254	0.10760942
4	0x3de8a819	0.11360187
5	0x3ac36c55	0.0014909605
6	0x3d8c4916	0.068498775
7	0xbce2489b	-0.027622512
8	0x3c893112	0.016747031
9	0x3d932115	0.07184044
10	0xbd7d579a	-0.06185112
11	0x3cd36770	0.025806159
12	0xbcc70ae5	-0.024297187
13	0x3d8e4625	0.06946973
14	0x3d70380d	0.058647204
15	0x3c549947	0.012975997
16	0x3cd0ff25	0.025512287
17	0x3da1ebd3	0.07906308
18	0x3d59c6df	0.053168174
19	0x3d75e86a	0.0600361
20	0xbe3c5dae	-0.18395111
21	0xbdf6b95d	-0.12047074
22	0xbdb6ab4f	-0.08919393
23	0xbd2b6d82	-0.04185248
24	0x3c949287	0.018136276
25	0xbcba1881	-0.022716762
26	0xba8ca999	-0.0010731696
27	0x3da14695	0.078747906
28	0x3e261acc	0.1622116
29	0xbd1a8493	-0.03772409
30	0x3d77cc10	0.060497344
31	0x3d5124a2	0.051060326
32	0x3decc9ab	0.115619026
33	0xbd726596	-0.05917891
34	0x3d1871fe	0.037218086
35	0x3dc5e825	0.09663419
36	0x3cbad401	0.02280617
37	0x3d5795e7	0.052633192
38	0x3da825fd	0.08210371
39	0x3c5a56a0	0.013326317
40	0x3d498807	0.04920199
41	0xbd5e8f1e	-0.054335706
42	0x3b0d696e	0.0021577734
43	0x3e45b6de	0.1930804
44	0x3e0efbec	0.13963288
45	0x3cc8d6aa	0.024516422
46	0xb9704cbe	-0.00022916772
47	0x3d8d619e	0.069033846
48	0x3db5657a	0.08857246
49	0xbbfece86	-0.0077760844
50	0x3e2fb24e	0.17157862
51	0x3df5f200	0.120090485
52	0xbb410af9	-0.0029456003
53	0xbda98fb2	-0.08279361
54	0x3d190556	0.037358604
55	0x3d5607b1	0.05225343
56	0x3da360d6	0.07977454
57	0xbcd283ff	-0.025697706
58	0xbdfb87dd	-0.12281773
59	0xbbca8612	-0.006180533
60	0x3cae14cc	0.021250151
61	0xbd3573ab	-0.044299763
62	0xbdd242b5	-0.102666296
63	0xbd8bf185	-0.068331756
64	0x3cdbf842	0.026851777
65	0x3e642e36	0.22283253
66	0x3c82b700	0.015956402
67	0x3d920d54	0.071314484
68	0x3dc9297e	0.09822367
69	0x3df2a8e1	0.11848617
70	0x3e68dfaf	0.22741579
71	0x3de2bd95	0.11071316
72	0xbd023f39	-0.031798575
73	0x3d88c518	0.06678218
74	0x3e54303d	0.20721526
75	0x3cbc8eaa	0.023017246
76	0xbcb1aad3	-0.0216879
77	0x3c914444	0.017732747
78	0xbc8e660d	-0.017382646
79	0xbc13d0af	-0.009021922
80	0x3dcfb30c	0.10141572
81	0xbbfee7a6	-0.0077790795
82	0xba217a4e	-0.00061598874
83	0x3d60411b	0.05474959
84	0x3dd43e3f	0.10363435
85	0xbdd63da0	-0.10460973
86	0x3c87f8eb	0.016598186
87	0xbd035357	-0.0320619
88	0xbdccbe83	-0.09997275
89	0x3bb9c515	0.005669246
90	0xbb83224b	-0.004001891
91	0x3dd54215	0.10412995
92	0x3c8216bf	0.015879987
93	0xbb8c2bb0	-0.004277669
94	0xbdd1c7e5	-0.10243205
95	0x3e472c3c	0.19450468
96	0x3e0b30f5	0.13592894
97	0x3df86af8	0.12129778
98	0x3d262c14	0.04056938
99	0x3dd4d013	0.103912495
100	0xbd98efb8	-0.07467598
101	0xbd68c479	-0.056827996
102	0xbdd01e44	-0.10162023
103	0xbcf05ba7	-0.029340578
104	0xbd8bc9b2	-0.0682558
105	0x3b4c9046	0.0031213923
106	0x3d0cc72d	0.034369636
107	0x3c9eddf6	0.019392949
108	0xbcf69dae	-0.030104484
109	0xbd840805	-0.06446842
110	0x3d0fa0fa	0.03506563
111	0x3d902b3c	0.07039496
112	0x3c6e75d3	0.014554459
113	0xbdb98905	-0.090593375
114	0xbe44331c	-0.19160122
115	0xbc8af991	-0.016964706
116	0xbdc01032	-0.09378089
117	0xbe2894e6	-0.1646305
118	0xbdd943db	-0.106086455
119	0xbe446865	-0.19180448
120	0xbdab511e	-0.08365081
121	0xbd81222c	-0.06305346
122	0x3d6ccc84	0.05781223
123	0x3d0cd0e7	0.034378912
124	0x3d1a1099	0.037613485
125	0x3ce46365	0.027879426
126	0xbcc3d1fd	-0.023903841
127	0xbdb9d582	-0.090739265
128	0xbcab73a8	-0.020929173
129	0xbdb9e1ae	-0.09076248
130	0x3c8fbd81	0.017546417
131	0x3d57d4c4	0.052693143
132	0x3c7e6a8c	0.015528332
133	0x3dad8a3e	0.08473633
134	0xbd0ccd5a	-0.034375526
135	0x3d189aff	0.03725719
136	0xbc48f583	-0.012265566
137	0x3d856cf2	0.0651492
138	0xbbafe956	-0.005368392
139	0xbdb2fd01	-0.08739663
140	0x3db0aa7a	0.08626266
141	0x3d4451ed	0.047929693
142	0xbc95d147	-0.018288268
143	0xbc3249db	-0.010881866
144	0xbe19209d	-0.14953847
145	0xbca11baf	-0.01966652
146	0x3c08d2cb	0.008351038
147	0x3d335fe1	0.04379261
148	0xbe111660	-0.14168692
149	0xbdb88fa9	-0.09011776
150	0xbe302559	-0.17201747
151	0x3cd59499	0.026071833
152	0xbcd85816	-0.02640919
153	0x3c9b1f81	0.01893592
154	0x3d06716d	0.032823015
155	0xbe341d66	-0.1758934
156	0xbe154458	-0.14576852
157	0xbdd9df3d	-0.106382824
158	0x3d9f1691	0.07767976
159	0xbd221eed	-0.039580274
160	0x3de900e2	0.113771215
161	0x3d6586c0	0.05603671
162	0x3d75337b	0.05986355
163	0x3dd59786	0.104292914
164	0x3dedc292	0.11609377
165	0x3c50f580	0.012753844
166	0xbd84ee60	-0.06490779
167	0x3d5f32f5	0.054491956
168	0x3d9c2f40	0.076262
169	0x3e08d9fe	0.13364407
170	0x3d814111	0.063112386
171	0xbdcdd509	-0.10050399
172	0xbda630e9	-0.081147976
173	0xbd156917	-0.036477175
174	0x3de9fdc0	0.11425352
175	0xbc945ded	-0.018111194
176	0xbdb63026	-0.08895902
177	0xbda65b63	-0.081228994
178	0xbe099ca1	-0.13438655
179	0x3caafd41	0.020872714
180	0x3d4da4b0	0.050205886
181	0xbcd45141	-0.025917651
182	0x3cc7262c	0.024310194
183	0x3e39e387	0.18153201
184	0x3d8d0e95	0.06887547
185	0x3dddcfc1	0.108306415
186	0x3df5a506	0.11994366
187	0x3dc5dcdc	0.09661266
188	0x3dad9f09	0.08477599
189	0xbe23cca8	-0.15996039
190	0x3d14b7f8	0.03630826
191	0x3d18c0c5	0.037293214
192	0xbda070bf	-0.078340046
193	0xbdca2308	-0.09869963
194	0xbe0d38f1	-0.13791253
195	0x3db223f6	0.08698265
196	0x3c363bbf	0.011122643
197	0xbd438e20	-0.047742963
198	0xbd3b1414	-0.045673445
199	0xbc96ce36	-0.018408876
200	0x3e0cb8f0	0.13742423
201	0x3e12f0b5	0.14349635
202	0x3d7902f1	0.06079382
203	0x3d819baf	0.063285224
204	0x3e210cf1	0.15727593
205	0x3df0d2ff	0.11758994
206	0x3c8093ce	0.015695479
207	0xbd175907	-0.036950137
208	0xbd10bcfc	-0.03533648
209	0x3cdd85e0	0.027041376
210	0x3ca26721	0.019824566
211	0x3d9d004c	0.07666072
212	0xbacfdd03	-0.0015858713
213	0x3cc0383d	0.023464317
214	0x3d4fced1	0.050734345
215	0xbb3fff59	-0.0029296486
216	0x3e02fa54	0.12790805
217	0x3ce27332	0.02764282
218	0xbccd08dd	-0.02502864
219	0x3e0a0371	0.13477875
220	0x3d531281	0.05153132
221	0x3dce9516	0.1008703
222	0x3c774543	0.015092197
223	0x3d883e11	0.06652463
224	0x3d184f87	0.03718522
225	0xbc11e331	-0.008904264
226	0x3d31f600	0.043447495
227	0x3e077fe7	0.13232385
228	0x3e0a510c	0.1350748
229	0x3df033f0	0.11728656
230	0x3cd194dc	0.025583677
231	0x3dd93647	0.10606056
232	0x3e2483c9	0.16065897
233	0x3e2e9139	0.17047586
234	0xbd6ba124	-0.057526723
235	0xbdfdb6ee	-0.12388407
236	0x3d677aa0	0.05651343
237	0x3da49f26	0.08038168
238	0xbd810978	-0.06300634
239	0x3d44b874	0.04802747
240	0xbe1491fa	-0.1450881
241	0xbbcb8b51	-0.006211676
242	0xbdb1b62e	-0.08677326
243	0x3dc51b95	0.096244015
244	0x3dda22ed	0.10651193
245	0xbdbee418	-0.09320849
246	0x3d2da4ad	0.042393375
247	0xbb589fd5	-0.0033054252
248	0x3dcae7ba	0.099074796
249	0xbd9d28a0	-0.07673764
250	0x3badee82	0.0053079734
251	0xbd52653c	-0.051366076
252	0x3d74087a	0.059578396
253	0xbd9b12fb	-0.075719796
254	0xbd9bc054	-0.07605043
255	0x3d9d23b6	0.07672827
