pytorch_LeNet-5/model_no_9/lenet_weights_epoch(5)/fc2_weight.npy (npy, 3488 bytes, 1 tensors)

array f4 [10, 84]
000000 02 b0 55 be 53 74 90 be 39 ec 3c be 9f 17 13 be
       -0.20867923 -0.28213748 -0.18449487 -0.1436448
000010 8e 03 96 bd 40 40 8a be 47 43 8f be ee b5 46 be
       -0.07324897 -0.27002144 -0.27981016 -0.19405338
000020 a1 b5 3d be 65 ab b5 be 65 63 64 be 49 7d 17 3e
       -0.18526317 -0.35482326 -0.22303541 0.14793886
000030 1f f2 b2 bd b8 1c 9a 3d 9a 9b d8 bd 3b 59 69 3e
       -0.08737587 0.07525009 -0.10576554 0.22787945
000040 df d5 2b 3e d9 57 86 3e d5 a9 06 3d a2 b9 20 bb
       0.16780804 0.26238897 0.03287681 -0.0024524708
000050 c1 73 c6 be bd 8e eb bd 5a 8f f8 3d d7 ed 74 be
       -0.38760188 -0.115018345 0.12136717 -0.23918854
000060 56 f6 6b be 08 6e 83 be 31 d7 2d 3e 47 f5 1b be
       -0.23043188 -0.25669885 0.1697662 -0.15230285
000070 bb 5a 8e 3e 8e 7c 8f 3e b6 86 8e 3c f6 af b1 be
       0.27803597 0.28024715 0.01739822 -0.3470456
000080 0e fc bb bc 37 12 11 be 19 7e 40 3e c6 eb 81 3e
       -0.022947337 -0.14167105 0.18798102 0.25375193
000090 8d 96 61 bd 6a 40 9d be 38 7d 42 be 13 ac 93 be
       -0.055075217 -0.30713207 -0.1899308 -0.2884222
0000a0 19 d8 6d bd f4 9f 9a 3d 9c 81 6c be 3b 7b ba be
       -0.058067415 0.0755004 -0.23096317 -0.36422142
0000b0 a2 4f 98 be 7f 49 49 be ac 93 1e be 84 eb 90 be
       -0.29748255 -0.19656943 -0.1548602 -0.28304684
0000c0 4e fb 2d be c7 33 04 be f7 de b1 bd 85 a7 04 3e
       -0.16990396 -0.12910376 -0.08685105 0.12954529
0000d0 c6 e5 84 3e db 3b c4 bd b4 63 76 3e 21 e2 26 3d
       0.25956553 -0.09581729 0.24061471 0.040742997
0000e0 3c 94 08 be ff 07 1a 3e e1 4b 53 be 32 cf 8a 3e
       -0.13337797 0.15042113 -0.20634414 0.27111202
0000f0 51 d2 76 be 15 b0 3b 3e 89 6d a7 be a0 4a 6d be
       -0.24103667 0.18328889 -0.32700756 -0.23172998
000100 69 fb 70 3e 0a 99 88 3e e2 8e 7d 3e e4 06 86 be
       0.23533405 0.2667926 0.24761537 -0.26177132
000110 a4 c9 cc 3d d1 dc 94 be b5 f8 67 bd f3 07 dd bd
       0.099993974 -0.2907472 -0.05663367 -0.10792532
000120 e1 40 b4 be f3 60 9a be 0e 3b da 3d 6d bf 43 3e
       -0.3520575 -0.3015209 0.10655795 0.19115992
000130 fa ff ab be d7 50 8b 3e 43 0c 94 be 8e 54 73 be
       -0.33593732 0.27210113 -0.28915605 -0.23762724
000140 5e 0a 8e bd 26 89 90 be 96 3a 27 be 1e 3a f9 3d
       -0.06935571 -0.28229636 -0.16330943 0.12169288
000150 54 ad aa be bd 9b 86 3e 53 42 30 be d8 ae 52 be
       -0.33335364 0.26290694 -0.172128 -0.2057451
000160 f8 a4 77 3a 70 99 95 3d 63 76 16 be d9 6b 77 bd
       0.00094468845 0.073046565 -0.14693598 -0.060405586
000170 60 a8 98 bb b5 5f 06 bd 76 9a 8d 3d 73 b3 2b be
       -0.0046587437 -0.032806117 0.06914227 -0.16767673
000180 2d d9 88 3e f6 e4 c8 3d 13 f0 88 3e 60 70 b3 3d
       0.26728192 0.09809296 0.26745662 0.08761668
000190 be e3 53 be ae 11 57 be 94 e0 dd bd ba ac fe bd
       -0.20692345 -0.21002838 -0.108338505 -0.12435289
0001a0 c5 de 85 be 05 fb 8d bd 91 41 08 be a5 f8 85 bc
       -0.26146522 -0.06932644 -0.13306262 -0.016353915
0001b0 f3 e2 87 be 90 5d 5b bd 7f 13 0f 3e 23 45 7d 3e
       -0.26540336 -0.053556025 0.13972281 0.24733405
0001c0 1a dd f8 3d 87 3b 1c be 56 08 a9 be cb ca 15 3e
       0.12151547 -0.15257083 -0.33014172 0.1462814
0001d0 78 81 9c be f8 39 2e 3e fa c2 52 3e af c4 41 be
       -0.30567527 0.17014301 0.2058219 -0.18922685
0001e0 2b 50 69 3e 6e 57 3e bc cf de 99 be ff 39 83 3e
       0.22784488 -0.011617525 -0.30052802 0.25630185
0001f0 7b fb b5 bc fa 52 a2 be 34 0f 95 be 14 46 40 3d
       -0.022214642 -0.3170393 -0.29113162 0.04694183
000200 b3 02 ac be 22 bd 8e bd c0 d6 7b be 36 d9 48 be
       -0.3359581 -0.06969668 -0.2459364 -0.1961411
000210 3b 80 72 be 03 80 45 3e 26 90 93 3e 32 94 ac be
       -0.23681729 0.19287114 0.28820914 -0.33706814
000220 76 40 89 3d 92 7c 7d 3e 5a 9a b6 be ba 8a 5b be
       0.06701748 0.24754551 -0.35664636 -0.21439639
000230 3d fe 42 be 1d 27 8b 3e 58 82 67 be 98 8f 97 be
       -0.19042297 0.2717828 -0.22608316 -0.2960174
000240 eb cb 4d be c0 d1 99 be e8 0a dd bd 40 b7 0c be
       -0.2009732 -0.3004284 -0.10793096 -0.1374178
000250 f8 08 22 be 23 c1 55 3e 8f 2b 11 be e5 dd 80 3e
       -0.15823734 0.20874457 -0.14176773 0.25169292
000260 f4 aa 0b be a6 1e c4 bd a4 09 b4 be 7c 2e 62 3e
       -0.13639432 -0.09576158 -0.35163605 0.22088045
000270 2a 10 25 3e b1 a2 75 3e d4 3e cb bd fc 90 ad be
       0.16119447 0.23987843 -0.09924093 -0.33899677
000280 f8 b3 45 be d2 53 28 3e 2d 8a 08 3e 6f fc dd bd
       -0.19306934 0.16438225 0.1333396 -0.108391635
000290 69 00 1d 3e e1 7e 39 be 4f 3a 5b be 0a 85 da bd
       0.15332188 -0.18114807 -0.21408962 -0.106699064
0002a0 a2 27 85 bd 68 26 82 3e 50 08 16 3e e5 6b 3b 3e
       -0.065017 0.25419927 0.14651608 0.18302877
0002b0 dd 19 f7 bd 09 3c 48 3e 26 18 53 be ad 6f d9 be
       -0.1206548 0.19554152 -0.2061468 -0.42468014
0002c0 e9 64 87 be b2 5c ac 3d f6 5e 8a 3e b6 4f 25 3e
       -0.26444176 0.08416118 0.27025574 0.16143689
0002d0 50 2f a8 be 2b c1 6f 3e bb dc 0e 3d 23 23 89 be
       -0.32848597 0.23413531 0.034878474 -0.2678462
0002e0 f2 82 16 be 48 85 62 be 23 b4 7f 3d 9e cb 47 3e
       -0.14698389 -0.22121155 0.06242765 0.19511268
0002f0 48 c0 d4 3d 04 2f 29 be f6 6c d1 3d 6a 59 1c be
       0.10388237 -0.16521841 0.10225861 -0.15268484
000300 dd f5 75 3d 03 97 85 be 07 9c b8 be cb 13 08 be
       0.060048927 -0.26091775 -0.3605654 -0.132888
000310 7f 43 b4 bc 3f a9 83 3d 71 52 ba be 08 15 75 be
       -0.02200484 0.064287655 -0.36391023 -0.23933804
000320 81 e2 54 3e 58 8c 71 be 9c 5a 90 be 8f 90 60 be
       0.2078953 -0.23588693 -0.2819413 -0.21930145
000330 65 06 70 3e 17 66 94 bd 60 92 9a bd 6d cd ff bd
       0.2343994 -0.072460346 -0.0754745 -0.12490354
000340 94 61 89 be 1e 08 61 3a 4c a2 67 3e 62 aa 10 be
       -0.2683226 0.00085842784 0.22620505 -0.14127496
000350 2c 9a c7 bd da 2d 95 be 13 9e 6c be 3f 0a 57 bd
       -0.09746203 -0.29136544 -0.23107176 -0.052500006
000360 53 1b a7 bd 69 8d 8a 3e 4e 35 f0 bd 65 39 37 3e
       -0.081595086 0.27061012 -0.11728917 0.17892988
000370 0a d7 6e 3e ee 97 80 bd 4d 1a 98 be f5 2a fc bd
       0.23324218 -0.06278978 -0.29707566 -0.12312881
000380 ab 4b 2e 3e 0e 5a 9b be 6e 68 71 be 99 d9 4d bb
       0.17021053 -0.30342144 -0.23574993 -0.0031410216
000390 0b fe 21 3e ee fb 7c bc 60 82 ec bd 2b d1 64 be
       0.15819566 -0.015440924 -0.115483046 -0.22345416
0003a0 aa 5a 67 be ba 1e ba be f7 7e 32 3e 81 ba 5e 3e
       -0.2259318 -0.36351568 0.17431246 0.21750833
0003b0 50 a3 0d be 58 ce 8d 3d d0 e6 67 3e 49 67 78 be
       -0.1383183 0.069241226 0.22646642 -0.2425815
0003c0 e4 2f 6a 3d 2e 4b 0f be 19 9a 7d 3e f2 60 36 be
       0.05717458 -0.13993523 0.24765815 -0.17810419
0003d0 49 01 2f be 00 a9 87 be 7f a8 a7 be 5e 62 8b 3c
       -0.17090334 -0.26496124 -0.3274574 0.017014679
0003e0 30 7a f1 bd 03 b1 f7 bd 5a 1e 8d be 13 1e 1a be
       -0.117908835 -0.12094309 -0.2756222 -0.15050535
0003f0 77 42 5b be 2a d9 43 be 02 3c ed 3c bb b1 6a bc
       -0.21412073 -0.1912581 0.028959278 -0.014324601
