pytorch_LeNet-5/lenet_weights_epoch(5)/conv3_bias.npy (npy, 608 bytes, 1 tensors)

array f4 [120]
0	0xbbe61114	-0.007021079
1	0xbc4c6deb	-0.012477378
2	0x3d142238	0.036165446
3	0x3c685f46	0.014182871
4	0xbccc9586	-0.024973642
5	0x3ce0b60d	0.027430559
6	0xbaa4ec9a	-0.001258272
7	0x3d52edd8	0.051496357
8	0x3af4f271	0.0018687976
9	0xbc2657ba	-0.010152752
10	0xbcae0c19	-0.021246003
11	0x3d150c43	0.036388647
12	0x3c1813d9	0.009282076
13	0xbc9c3e54	-0.01907269
14	0xbd035175	-0.032060105
15	0xbd322be3	-0.043498885
16	0xbc2d78cb	-0.010587881
17	0xbd300e4b	-0.04298238
18	0xbc87cbb0	-0.016576618
19	0xbce8c287	-0.02841307
20	0x3cedb197	0.029015345
21	0xbc09d236	-0.008411935
22	0xbd489046	-0.048965715
23	0x3cff3c02	0.031156544
24	0xbd038c0d	-0.032115985
25	0x3d2bf0c9	0.041977677
26	0xbd10dc44	-0.03536631
27	0xbcd1f090	-0.025627404
28	0xbc8dec0a	-0.017324466
29	0x3d3b798d	0.045770217
30	0x3c8ce341	0.017198207
31	0x3bec5e00	0.007213354
32	0xbcbca7e6	-0.023029279
33	0x3b32613b	0.0027218598
34	0x3cdc4aae	0.026891079
35	0x3d06cb0b	0.03290848
36	0xbc5ea77c	-0.013589736
37	0x3c0e99f4	0.0087036975
38	0x3cab6b5b	0.020925215
39	0xbd201cdc	-0.039090022
40	0xbb9cb496	-0.0047822697
41	0xbcfabf78	-0.030608878
42	0x3d4f70a8	0.050644547
43	0x3c8e7d94	0.017393865
44	0xbc54c307	-0.012985951
45	0xbd28324c	-0.04106359
46	0xbd1f94a8	-0.03896013
47	0x3d070f39	0.0329735
48	0xbc47666c	-0.012170415
49	0xbc724b65	-0.014788483
50	0xbcd6741a	-0.026178408
51	0xbd26bfb1	-0.040710155
52	0x3ce6ca5a	0.02817266
53	0x3b608e45	0.0034264487
54	0xbba61f82	-0.005069674
55	0x3d2f2396	0.042758547
56	0x3d1f44ee	0.038884096
57	0x3d1fc14b	0.039002698
58	0xbcb95e4c	-0.022627972
59	0x3c6bd85b	0.014394845
60	0x3c7b0abc	0.0153223835
61	0xbd213d12	-0.03936488
62	0xbcc46572	-0.023974154
63	0xbd29bccf	-0.041439828
64	0x3d2a8ef5	0.04164024
65	0xbd078b8a	-0.03309206
66	0xbcd11c95	-0.025526324
67	0xbcbeadbb	-0.0232762
68	0x3cdcc066	0.026947211
69	0xbd06f163	-0.032945048
70	0xbd0dc4f8	-0.034611672
71	0x3cd7d4de	0.02634662
72	0xbc522822	-0.012826951
73	0xbd04a5da	-0.03238473
74	0x3bcbb909	0.0062171263
75	0x3d0eaf97	0.034835424
76	0x3d54b030	0.051925838
77	0x3d2afe9d	0.041746724
78	0xbc3acede	-0.01140186
79	0xbc595740	-0.013265431
80	0x3cc0f70e	0.023555305
81	0x3c5e9a54	0.013586599
82	0x3c8364e9	0.016039329
83	0x3d005aa2	0.031336434
84	0x3d0de7f3	0.034645032
85	0xbbf63ada	-0.00751434
86	0x3d2daf8f	0.042403754
87	0x3ce7fba3	0.028318232
88	0xbb8364a3	-0.0040097996
89	0x3d1cdfdd	0.03829943
90	0x3c21af5a	0.009868467
91	0xbb077481	-0.0020668807
92	0xbb2242cb	-0.002475905
93	0x3d3621df	0.044465896
94	0x3ccbe586	0.024889719
95	0x3cafe7ef	0.0214729
96	0xbc8f8b81	-0.017522575
97	0x3b9d79cf	0.0048057805
98	0xbcb85a16	-0.022503894
99	0x3c953b87	0.018216861
100	0x3c6a401e	0.014297513
101	0x3d33f6a8	0.0439364
102	0xbcfe150e	-0.031015899
103	0x3d44f4a4	0.04808487
104	0x3acb7d35	0.0015524986
105	0xbd22884f	-0.039680775
106	0x3d348a88	0.044077426
107	0xbc8da78a	-0.017291803
108	0x3c3c461d	0.011491326
109	0xbd45c29b	-0.048281293
110	0xbcebdcf6	-0.028791886
111	0xbd41f27d	-0.047350395
112	0xb9d9e1e6	-0.00041557773
113	0x3c98b534	0.018641092
114	0xbd0491a5	-0.03236546
115	0x3d34bce1	0.04412544
116	0xbb7eb158	-0.003886303
117	0xbb8856f2	-0.0041607553
118	0x3ce128b0	0.027485222
119	0x3c820b7d	0.015874619
