pytorch_LeNet-5/lenet_weights_epoch(5)/fc1_bias.npy (npy, 464 bytes, 1 tensors)

array f4 [84]
0.0017033287 -0.043342758 -0.07189361 0.051936645 -0.04419553 -0.04452683 -0.08626346 0.065512545
-0.05793074 0.057438247 0.05111228 -0.023218697 -0.040186215 -0.071516894 0.02680629 -0.066744715
0.060258083 0.009151018 0.0043857 -0.044643562 -0.03556828 -0.010730548 -0.04852216 0.07705658
0.021582961 0.075285256 -0.08894965 -0.086301535 0.038040716 0.018085988 0.043822315 -0.08249755
0.055559825 0.015602207 -0.08670091 -0.061880488 0.0237607 0.01569382 -0.069571376 0.00881789
-0.06587018 -0.0007067042 -0.05109894 -0.028752973 0.07247321 0.07248625 0.08278163 0.032101642
-0.07347338 0.054799017 0.015276867 -0.08650158 -0.009091468 -0.06981317 -0.050257266 0.036544565
-0.04052036 0.0782145 0.061978716 -0.014261497 0.04267382 -0.050070282 0.022644166 0.035983525
0.01860784 0.03941874 0.037658595 7.0815506e-05 -0.054482322 -0.06416558 -0.059947375 -0.0885723
-0.08877899 -0.059295483 -0.055838007 0.01449084 0.007009381 0.029860642 0.034959797 -0.07928627
-0.08235744 0.048544794 -0.07596765 -0.060818665
00000000: 3a42 df3a 2d88 31bd f53c 93bd 85bb 543d
00000010: 5f06 35bd c461 36bd e6aa b0bd 712b 863d
00000020: c948 6dbd 5e44 6b3d 1c5b 513d 2335 bebc
00000030: 4d9a 24bd 7377 92bd dd98 db3c 74b1 88bd
00000040: 2ed1 763d 27ee 153c ebb5 8f3b 2bdc 36bd
00000050: 0bb0 11bd 2ecf 2fbc 2cbf 46bd d7cf 9d3d
00000060: c0ce b03c 282f 9a3d 3c2b b6bd dcbe b0bd
00000070: 95d0 1b3d 1129 943c 077f 333d 7af4 a8bd
00000080: b392 633d 66a0 7f3c 3f90 b1bd 6576 7dbd
00000090: cda5 c23c 5390 803c 707b 8ebd e978 103c
000000a0: f2e6 86bd 1e42 39ba 1f4d 51bd 5b8b ebbc
000000b0: d66c 943d ac73 943d 6a89 a93d 037d 033d
000000c0: 3679 96bd ef74 603d d34b 7a3c be27 b1bd
000000d0: 61f4 14bc 35fa 8ebd 90da 4dbd c1af 153d
000000e0: adf8 25bd ec2e a03d 65dd 7d3d 0ea9 69bc
000000f0: beca 2e3d 7f16 4dbd 4280 b93c 7663 133d
00000100: 786f 983c 8b75 213d e63f 1a3d c982 9438
00000110: db28 5fbd 3e69 83bd 618b 75bd 6565 b5bd
00000120: c2d1 b5bd d2df 72bd 65b6 64bd fd6a 6d3c
00000130: f3ae e53b 4e9e f43c 0132 0f3d d760 a2bd
00000140: 04ab a8bd e8d6 463d ed94 9bbd fe1c 79bd
