pytorch_LeNet-5/lenet_weights_epoch(5)/fc2_weight.npy (npy, 3488 bytes, 1 tensors)

array f4 [10, 84]
000000 83 b5 b3 be a6 23 4c 3e 3c 63 cd bd 88 c7 fd 3d
       -0.3509942 0.19935474 -0.10028693 0.12391573
000010 26 82 a9 be 5b df cd bd c4 68 40 3e 07 c3 d1 be
       -0.33107108 -0.10052367 0.18789965 -0.40969107
000020 29 f9 4e be c9 64 2e be d7 6d 08 3e 12 64 19 bd
       -0.20212235 -0.17030634 0.1332315 -0.03744895
000030 ed 0c 6f 3e 43 6c 92 3e 6d 15 50 3e 6c f7 06 be
       0.23344775 0.28598222 0.20320673 -0.13180321
000040 a1 06 06 be c1 81 40 bc cc e7 2d be 42 ce f4 bd
       -0.13088466 -0.011749686 -0.16982955 -0.11953403
000050 44 a4 69 be 81 da b0 be e1 f3 fc bd aa 8a bf be
       -0.22816569 -0.34541705 -0.12351204 -0.3741048
000060 1c 53 2d 3e 1d 4a 41 bd 90 d7 6f be 80 84 6a 3e
       0.16926235 -0.04718982 -0.23422074 0.22902107
000070 96 66 73 be 9f 30 60 3e ae e7 39 be b8 7c 4d be
       -0.23769602 0.21893547 -0.18154785 -0.20067108
000080 ee ae 91 3d c3 03 6b be da 89 89 be 13 72 90 be
       0.07113443 -0.22950654 -0.26862985 -0.28212032
000090 a5 9f 70 3e 05 e1 1d 3e 48 d5 1b be 5c b4 f7 bd
       0.234984 0.1541787 -0.15218079 -0.12094948
0000a0 80 0a 3d be 4c 20 3b 3d 71 20 2a 3e db ba b5 be
       -0.18461037 0.045685098 0.16613938 -0.35494122
0000b0 62 bf 87 3e f4 58 91 be 02 4e e0 bd bf d8 2b 3e
       0.265132 -0.28388178 -0.10952379 0.16781901
0000c0 fc 62 63 bd e0 72 2e be f8 a6 f9 3d 86 88 0f 3e
       -0.05551432 -0.17036009 0.1219005 0.14016923
0000d0 c7 38 3e be d2 4c 96 be 07 48 bf be b8 3e 98 3e
       -0.18576346 -0.29355484 -0.3735964 0.2973535
0000e0 93 22 35 be 36 8f 29 3e 32 11 12 be c3 6d 87 be
       -0.1768897 0.16558537 -0.14264372 -0.2645093
0000f0 4c e6 c0 bd aa be 29 be a0 ae 90 be e8 fb 6f be
       -0.09418926 -0.16576639 -0.28258228 -0.23435938
000100 f3 e1 62 3e 3a a6 8b 3e da 74 6c be 36 fd 7f 3e
       0.22156505 0.27275258 -0.2309145 0.24998936
000110 e6 9d 49 3e 9b 81 4e be 66 a8 9a bd bf 8e 75 be
       0.1968914 -0.20166628 -0.07551651 -0.23980235
000120 c6 92 7e be 48 55 5d 3e 5f ca 21 be 7f 74 69 be
       -0.24860677 0.21614563 -0.15799855 -0.22798346
000130 ee 20 9f be 5f dd d9 3c 49 c4 6d be e5 3f 4d be
       -0.3107981 0.026594816 -0.23219408 -0.20043905
000140 9e 29 21 be 68 77 7d be 47 c5 55 3e 39 80 5c be
       -0.15738532 -0.24752581 0.20876037 -0.21533288
000150 77 d8 22 be 57 2f ad 3d 57 23 93 be 51 c6 9b be
       -0.15902887 0.08456295 -0.287379 -0.3042474
000160 a8 c8 11 be 5b 5e 26 be 3b 0f 92 be 1b ff f3 bd
       -0.142367 -0.16246931 -0.28527245 -0.11913892
000170 ef ad 7e 3e 62 c7 83 3e b6 06 95 be e7 d3 62 bd
       0.24871038 0.25738055 -0.29106683 -0.055377867
000180 30 ea 88 be 00 bd a5 be f3 cd 96 be e7 1a 41 be
       -0.2674117 -0.32370758 -0.29454002 -0.18857919
000190 af 13 6d bc a0 8a 32 be b3 53 e9 3d 84 42 0f be
       -0.014470025 -0.17435694 0.113929175 -0.13990217
0001a0 64 0a 48 3e 18 8e 95 3e 17 96 f7 3d 3e 94 49 bd
       0.19535214 0.2920997 0.12089174 -0.04921364
0001b0 00 75 8d be 18 2c 11 be 8e 23 45 bd 0e 91 3c 3e
       -0.27628326 -0.14176977 -0.04812961 0.18414709
0001c0 3f 54 e3 3a fd 0f 8a be f9 f7 54 be 1f 33 17 3e
       0.0017343833 -0.26965323 -0.20797719 0.14765595
0001d0 70 b5 b1 be 78 d4 7d be d3 08 43 3e 29 de 1b bd
       -0.34708738 -0.24788082 0.19046335 -0.038053665
0001e0 2d 6f 2a 3e d2 ec 6d 3e 10 9e 83 3e 3d c3 47 bd
       0.16643973 0.23234871 0.2570653 -0.048770178
0001f0 1b f7 70 3e 14 3a 06 be 64 87 5c 3d 73 ed 17 3e
       0.23531763 -0.13108093 0.053840056 0.14836673
000200 dc e5 75 3e a3 25 2d 3e 29 96 fc bd a1 0c 2c 3e
       0.24013466 0.16908889 -0.12333328 0.16801693
000210 04 98 43 be 9e 29 7a 3e bc f6 ac be c3 e7 3a be
       -0.19100958 0.24429938 -0.33781993 -0.18252473
000220 29 47 42 3e 7a a8 55 be 1a f4 30 be 05 d9 54 3e
       0.18972458 -0.2086505 -0.17280617 0.20785911
000230 b8 3b 9c be fa cf 96 be 35 89 98 be 73 a1 77 3e
       -0.30514312 -0.2945555 -0.2979218 0.24182682
000240 d3 0f bc 3c 45 70 69 3e 08 21 83 be 7e 0d 40 be
       0.022956764 0.22796734 -0.25611138 -0.18755147
000250 64 85 9f bd 37 1b b3 be c5 bd 50 be 1c 7a a0 3b
       -0.07789114 -0.349817 -0.20384891 0.004897369
000260 66 55 9b be 7a 42 3e be cc db ab 3d da 3f 1a be
       -0.3033859 -0.18580046 0.08391532 -0.1506342
000270 d8 53 99 be e4 d1 df 3d 36 2f 69 be 0b e6 c6 bd
       -0.2994678 0.10928705 -0.22771916 -0.09711846
000280 28 d7 73 3e 6e cd 6f be 9b 67 45 be 6d fe f0 bc
       0.23812544 -0.23418209 -0.19277804 -0.029418195
000290 90 e4 2e 3e ee ef 2f 3c 30 a7 e1 3d 19 c2 97 bd
       0.17079377 0.010738356 0.110182166 -0.07410068
0002a0 38 6e ce 3d d2 7d 8c 3e 6c 8e 63 3c 54 61 c6 be
       0.10079616 0.27439743 0.0138889365 -0.3874613
0002b0 68 99 cc 3d 5d 2a 5e 3e 2a 91 8b be 76 fc c4 3d
       0.099901974 0.21695848 -0.2725919 0.096184656
0002c0 59 2a 39 be 1d 73 a9 be 62 76 16 be 3a c3 6e be
       -0.1808256 -0.33095637 -0.14693597 -0.2331666
0002d0 99 ef d2 3d 20 46 c7 bd 02 6f 00 be fd 85 c6 be
       0.10299606 -0.09730172 -0.12542346 -0.387741
0002e0 c4 80 96 3e e1 c6 91 3e 4d 03 3c 3d 04 24 ad be
       0.29395115 0.28472045 0.045901585 -0.3381654
0002f0 9e 63 6a be 3b e1 a7 bc b8 28 7f 3e 5a cd 4b 3e
       -0.22889563 -0.02049314 0.24917877 0.19902554
000300 2a 6e ab be ac 14 bd be 0a 20 3e 3e e7 b7 2d 3d
       -0.33482486 -0.36929834 0.1856691 0.04241171
000310 6a 3b 74 be eb 18 a5 be f7 f7 64 be f4 bd 41 be
       -0.2385079 -0.32245573 -0.22360216 -0.18920118
000320 42 e0 c2 bd cc 81 36 3d 46 ab 5a be 98 0f 34 3e
       -0.0951543 0.044557378 -0.21354398 0.17584074
000330 4a 58 98 be ef f8 39 3e 1b 89 03 be f7 41 22 be
       -0.2975486 0.18161367 -0.1284527 -0.15845476
000340 83 6f a9 3d 93 35 a2 be fe 8e 2a 3e 50 9d 90 be
       0.08273222 -0.316815 0.1665611 -0.2824502
000350 c0 9f 69 bb 93 c7 94 3d 3b 64 86 be 13 3e 95 be
       -0.0035648197 0.07264628 -0.26248345 -0.2914892
000360 2f 61 59 3e 75 7d 5f 3d 97 32 ab be 70 24 dc 3d
       0.21228479 0.054563005 -0.33437034 0.107491374
000370 db da 95 be 82 c2 92 3e 16 51 7a 3e 0f 3f be bd
       -0.29268536 0.28664023 0.24444994 -0.09289371
000380 6b 96 51 be 50 26 b0 be 88 7d fb 3d df aa b2 3b
       -0.20467536 -0.3440423 0.122798026 0.0054524983
000390 40 c0 4e 3e 2a f5 89 3c dc 94 9f bc f0 02 83 3e
       0.20190525 0.016840536 -0.019480161 0.2558818
0003a0 4e 8c 12 be 96 27 30 3e e1 3a 49 bd 32 1a 51 3e
       -0.14311334 0.17202601 -0.049128417 0.20420149
0003b0 d8 d4 62 be cb c3 b6 be 1e 52 dc bd 1c 9e 6d be
       -0.22151506 -0.35696253 -0.1075785 -0.23204845
0003c0 0a 45 74 3d d4 ea 58 3c 81 29 cb 3d b8 c0 8c be
       0.059636153 0.013239581 0.099200256 -0.27490783
0003d0 8a cd 73 bd 59 99 64 3e c2 cf 3a be f5 88 92 be
       -0.05952219 0.22324122 -0.18243316 -0.28620115
0003e0 10 f3 a0 be ce 36 de bd 6b 22 2b be c7 02 54 3e
       -0.31435442 -0.10850297 -0.16712348 0.20704184
0003f0 26 fd 9a be 45 69 9e be 71 d8 26 be 02 f2 55 be
       -0.30271262 -0.3093969 -0.16293503 -0.208931
