pytorch_LeNet-5/lenet_weights_epoch(5)/fc2_weight.npy (npy, 3488 bytes, 1 tensors)

array f4 [10, 84]
0	0x3e559173	0.20856266
1	0x3e8d308e	0.27576107
2	0xbe8e703c	-0.27820003
3	0x3d356fb3	0.044295978
4	0x3d896dc3	0.067103885
5	0xbde5d460	-0.11222148
6	0xbdcb5c54	-0.099297196
7	0x3e89230c	0.2678455
8	0xbd8e709d	-0.06955073
9	0xbea46914	-0.32111418
10	0x3e8ca18d	0.27467003
11	0xbe3959d3	-0.18100671
12	0xbe892b3a	-0.26790792
13	0xbea2ef29	-0.3182309
14	0xbe94eb12	-0.29085594
15	0x3e8249c4	0.25446904
16	0x3e841a05	0.258011
17	0xbe173506	-0.1476632
18	0xbe4ab980	-0.19797325
19	0xbe6addf3	-0.2293623
20	0xbe825a7d	-0.25459662
21	0xbe870e69	-0.26378182
22	0xbc3598a6	-0.0110837575
23	0xbeb25237	-0.3482835
24	0xbe3b70fb	-0.18304817
25	0xbe0264d1	-0.12733771
26	0xbe999db1	-0.30003121
27	0xbe87e04f	-0.2653832
28	0xbe9b228a	-0.3029979
29	0xbe364eb4	-0.1780346
30	0x3e46324f	0.19355129
31	0xbea12a28	-0.31477475
32	0xbeaaf9e8	-0.33393788
33	0xbe67c448	-0.22633469
34	0xbe8fd0a1	-0.2808886
35	0xbe19382b	-0.14962833
36	0x3e89e77c	0.2693442
37	0xbe4d9e79	-0.20079984
38	0xbe1deb7f	-0.15421866
39	0xbe3d442b	-0.18483035
40	0xbe09accf	-0.13444827
41	0x3e3c8829	0.18411316
42	0x3e16d045	0.14727886
43	0x3e45a644	0.19301707
44	0xbdcf4203	-0.101200126
45	0xbd3f4342	-0.046695
46	0xbda96aa7	-0.082722954
47	0xbcea87db	-0.028629234
48	0xbdaa4941	-0.08314753
49	0x3e448159	0.19189967
50	0x3e84b35c	0.2591809
51	0xba6061bb	-0.0008559485
52	0xbe78d27d	-0.24299045
53	0xbeb2a05a	-0.34887964
54	0x3dcbf15a	0.099581435
55	0xbe14104e	-0.14459345
56	0x3e470360	0.19434881
57	0xbe5454e6	-0.20735511
58	0xbe4e7d0e	-0.20164892
59	0x3e576ce5	0.21037634
60	0x3e66e953	0.22549944
61	0xbd9633ae	-0.07334076
62	0xbe3d7c7d	-0.1850452
63	0x3cce732e	0.025201406
64	0xbe2f56cd	-0.17122956
65	0x3e4e39bb	0.2013921
66	0xbeaf276b	-0.3420976
67	0xbdd20a34	-0.10255852
68	0xbe0c85f8	-0.1372298
69	0xbe628759	-0.22121944
70	0xbe9ccec8	-0.30626512
71	0x3e8a6d5f	0.2703657
72	0x3e1e77c6	0.15475377
73	0xbe044325	-0.12916239
74	0xbc65f968	-0.014036514
75	0x3e3860c1	0.18005659
76	0xbe4ea6d6	-0.2018083
77	0x3e4e35f6	0.20137772
78	0xbea6a30a	-0.32546264
79	0xbd8dc73e	-0.06922768
80	0xbe89b286	-0.26894015
81	0xbe6eb974	-0.23312932
82	0xbe268383	-0.16261105
83	0xbe1c669d	-0.15273519
84	0xbe5de284	-0.2166844
85	0xbe4010f1	-0.18756463
86	0xbe17a906	-0.14810571
87	0xbe96426e	-0.29347557
88	0xbe1917f7	-0.14950548
89	0x3e722177	0.23645578
90	0xbe51bff9	-0.20483388
91	0xbdd49225	-0.10379437
92	0x3e71ed4f	0.23625682
93	0xbe374c81	-0.17900278
94	0xbe893341	-0.26796916
95	0xbe9180d3	-0.28418598
96	0xbe10bca5	-0.14134462
97	0x3e7876e6	0.24264106
98	0x3da9de79	0.082943864
99	0xbe7cf0e6	-0.2470127
100	0xbe320311	-0.17383982
101	0x3e3f12d1	0.18659522
102	0x3e7ce83c	0.24697965
103	0xbea6835b	-0.3252209
104	0xbd31e77b	-0.043433648
105	0x3e84255e	0.2580976
106	0xbe93f89c	-0.2890061
107	0xbe4d2966	-0.20035324
108	0xbc20d88d	-0.009817255
109	0x3df22602	0.11823656
110	0x3e207a7a	0.15671721
111	0xbe80324a	-0.25038368
112	0x3e5a763b	0.21334164
113	0x3e366ffc	0.17816156
114	0xbdbb222c	-0.09137377
115	0x3e1e3405	0.15449531
116	0x3e22bcf7	0.15892397
117	0xbe1e7773	-0.15475254
118	0xbe70f401	-0.2353058
119	0x3ccced8c	0.025015615
120	0xbd43ae7d	-0.047773827
121	0xbe9d2872	-0.3069492
122	0xbe7e04aa	-0.24806467
123	0xbe51b4ff	-0.20479201
124	0x3e6ad660	0.2293334
125	0xbe7b2d57	-0.24529015
126	0xbe78d945	-0.24301632
127	0xbea65f80	-0.32494736
128	0x3d36f3cc	0.044666097
129	0x3e808d74	0.2510792
130	0x3e3528f9	0.17691411
131	0xbdeb8121	-0.11499239
132	0x3daf71a4	0.08566597
133	0xbe640e02	-0.22270969
134	0xbe733031	-0.23748852
135	0x3d0f4378	0.034976453
136	0xbe740507	-0.23830043
137	0xbde0baec	-0.109731525
138	0xbe183816	-0.14865145
139	0x3e299318	0.16560018
140	0xbda466bf	-0.0802741
141	0xbe83d678	-0.25749564
142	0xbe801d45	-0.2502233
143	0xbeab3dca	-0.3344558
144	0x3e880d54	0.2657267
145	0xbd68b858	-0.05681643
146	0x3cfc17ec	0.030773126
147	0xbe904f80	-0.28185654
148	0x3e32df80	0.17468071
149	0x3e4e348f	0.20137237
150	0x3c50cbe2	0.012743922
151	0xbe883498	-0.26602626
152	0xbe404226	-0.18775234
153	0xbe0ede4b	-0.13951986
154	0xbe66ad4b	-0.22527044
155	0xbcf0d1da	-0.02939694
156	0x3e53e9c0	0.20694637
157	0xbe99406c	-0.29931962
158	0xbe8a7018	-0.27038646
159	0xbe05a324	-0.13050514
160	0xbe63e366	-0.22254714
161	0x3e72c972	0.23709658
162	0xbe9921d9	-0.29908636
163	0xbe39c5b7	-0.18141828
164	0x3e3caa33	0.18424301
165	0xbd60e25d	-0.054903377
166	0x3dcccec7	0.10000377
167	0x3e37761b	0.17916147
168	0xbe4b6aa4	-0.19864899
169	0xbea191de	-0.315566
170	0xbe4c0841	-0.19925024
171	0xbe421317	-0.18952595
172	0x3e702ecb	0.2345535
173	0x3e7c2e8d	0.24627133
174	0xbe5c039f	-0.21485756
175	0xbe9e7a43	-0.30952653
176	0xbe3b7863	-0.18307643
177	0xbe7a48c1	-0.24441816
178	0xbe9aebee	-0.30258125
179	0xbe94eff1	-0.2908931
180	0xbe99a078	-0.3000524
181	0xbe5c2f7d	-0.2150249
182	0xbdd13e1e	-0.10216926
183	0xbe81599a	-0.25263673
184	0xbd551ef0	-0.052031457
185	0x3e8abefe	0.2709884
186	0xbe502f88	-0.20330632
187	0xbe70e2f8	-0.23524082
188	0x3e73244c	0.23744315
189	0xbe8e4c65	-0.2779266
190	0xbe84dbe2	-0.25949007
191	0xbe084296	-0.1330665
192	0x3dd86402	0.1056595
193	0xbdca4a22	-0.09877421
194	0xbe498174	-0.19678289
195	0x3e453cef	0.19261526
196	0x3e43782e	0.19088814
197	0xbe788c9f	-0.24272393
198	0x3e64a134	0.22327119
199	0xbe390a0a	-0.18070236
200	0xbd414ebc	-0.047194228
201	0x3e65aab1	0.22428395
202	0xbe5a1881	-0.2129841
203	0x3e386d6e	0.18010494
204	0xbdbcce39	-0.09219021
205	0x3e00eb2d	0.12589712
206	0x3e7accf0	0.2449224
207	0xbe72fdee	-0.23729679
208	0xbdb2d2fb	-0.087316476
209	0x3e4af8e1	0.19821502
210	0xbe97977f	-0.2960777
211	0xbe89d40b	-0.26919588
212	0xbd7cbe8f	-0.06170517
213	0x3df47038	0.119354665
214	0x3e1c04ec	0.15236253
215	0x3e7c73e2	0.24653581
216	0xbe789fa5	-0.2427965
217	0x3d229b57	0.039698925
218	0x3e366f77	0.17815958
219	0xbdfc2e68	-0.12313539
220	0xbe26d021	-0.16290332
221	0x3dd799dc	0.10527393
222	0x3d940536	0.072275564
223	0xbd8a98c5	-0.0676742
224	0x3e55b89e	0.20871207
225	0x3dbe577b	0.09294029
226	0xbe37e675	-0.17959006
227	0xbe2614af	-0.16218828
228	0xbe283955	-0.1642812
229	0xbe431aae	-0.19053146
230	0xbe72a245	-0.23694713
231	0xbe8a3f60	-0.27001476
232	0xbe5ad85a	-0.21371594
233	0xbe3c4b34	-0.18388063
234	0xbe993df8	-0.2993009
235	0xbe8c6502	-0.27420813
236	0xbe75f187	-0.24017917
237	0xbe4b9017	-0.19879185
238	0x3e3e97c2	0.18612579
239	0x3e6bd714	0.23031265
240	0xbd94c9ab	-0.072650276
241	0xbc647774	-0.0139444955
242	0x3e83d1df	0.25746056
243	0xbe20c0d2	-0.15698555
244	0x3e5031d0	0.20331502
245	0xbe6dac96	-0.23210368
246	0x3e60cec6	0.21953878
247	0xbe27bcc7	-0.16380607
248	0x3e424ba3	0.18974166
249	0xbe9bfefe	-0.3046798
250	0xbe949375	-0.2901875
251	0xbde8fee9	-0.11376745
252	0xbe329a92	-0.17441776
253	0xbe0541be	-0.1301336
254	0x3c3abc01	0.011397363
255	0xbe40a57c	-0.18813127
