pytorch_LeNet-5/model_no_17/fc2_weight.npy (npy, 3488 bytes, 1 tensors)

array f4 [10, 84]
-0.19346589 -0.13079356 -0.16910306 0.21623279 -0.20030673 -0.10965252 0.15646595 0.17495087
-0.06598946 -0.08958581 -0.08044434 0.06056334 -0.04437677 -0.33695176 0.0322744 -0.31438306
0.0046329275 0.1438946 -0.363118 -0.2614905 0.017905025 0.22122003 0.10615474 -0.26256078
0.1903218 -0.22590011 -0.108064346 -0.11263105 -0.07677503 -0.28160128 -0.043272685 0.070644036
0.09777258 -0.0010626126 0.09827079 0.13638021 0.17367058 -0.08657038 0.08957553 0.07384443
0.18917455 0.13240442 0.054993406 0.029710388 0.13632762 -0.057141356 -0.2881301 0.17452514
-0.36556742 0.24791588 -0.2776325 -0.2364633 -0.22073676 -0.17591393 -0.37836704 -0.09725605
-0.1640967 0.12988235 -0.23771109 0.13047138 -0.09801206 -0.24362396 -0.09944013 0.19972037
0.06992576 0.09884363 -0.09996985 -0.06727341 0.14726642 0.1153655 -0.108843915 -0.22053546
0.03544783 0.13367915 -0.21642292 -0.28100005 -0.28043532 -0.19445471 0.121337704 0.102743
-0.17599504 -0.28657237 -0.093575306 -0.11279938 -0.2674865 -0.08941532 0.18994251 -0.08565764
0.10609681 0.08376689 0.14697643 -0.2149696 -0.10852009 -0.3041139 -0.070332244 -0.06413486
0.17476574 0.14395823 -0.33117306 -0.016946632 0.16848156 0.061406136 0.10680345 -0.19875379
-0.27721894 0.12150183 0.018038014 -0.2496394 -0.1431465 -0.0032816916 -0.057950243 -0.1972012
-0.04398411 -0.25669965 -0.13793282 0.08817305 -0.3347681 0.035981666 0.13925333 -0.17524032
0.052844316 -0.2624043 -0.16724895 -0.0047674365 -0.12765121 0.0120737115 0.038603276 -0.21157138
-0.2691491 -0.21658145 0.1559374 -0.22768985 0.13457623 -0.1528162 0.07456108 -0.15008949
-0.0007003571 -0.14364256 0.054822814 0.043233864 -0.1418029 0.05988147 -0.06069073 -0.077641144
0.17489669 0.11545736 -0.43084422 0.041588765 -0.15753472 -0.012044346 0.0841616 -0.08994436
0.06334112 0.102758504 0.22534607 0.17075396 0.14621656 -0.1639526 0.037680928 -0.22599724
-0.14254597 0.15594263 0.13987663 -0.028314203 -0.15467566 -0.18415697 0.14341347 -0.14578316
-0.24051732 -0.27696642 0.042432368 -0.0033592253 -0.12608704 -0.2674391 -0.18834332 -0.13604489
-0.1598057 -0.33082408 0.28474185 -0.21440938 -0.19326107 -0.10798681 -0.18063684 0.20200342
0.1566551 0.1329931 -0.13625883 0.19407056 0.18918726 -0.10608475 -0.24613397 0.065336004
-0.13477154 -0.17314775 0.22050738 -0.07076037 0.1779716 0.21890634 -0.04457085 0.12368927
-0.06393069 -0.34387597 0.1668763 -0.0162112 -0.093453355 -0.124468625 0.19174893 0.1762001
0.25547117 0.054312706 -0.22517973 -0.20070183 -0.09548779 -0.19499078 -0.072426565 -0.033826437
-0.1758739 -0.03150048 0.15909447 -0.27226362 -0.21315943 0.03804625 0.23085932 -0.01973508
0.15953647 -0.2791837 -0.21554278 0.15649307 0.09349689 -0.18420626 -0.044266667 -0.005396412
0.053971913 -0.1389793 -0.039782006 -0.04656169 -0.12615629 -0.12607288 -0.20576514 -0.021091508
-0.24026456 -0.16528043 0.04065897 0.07305941 -0.10693829 0.21437854 -0.123133086 0.06626153
-0.18137577 0.017448308 0.10836132 0.1871734 -0.09649732 -0.25354898 -0.1969139 -0.30077657
00000000: ec1b 46be bfee 05be 5a29 2dbe 216c 5d3e
00000010: 351d 4dbe 8091 e0bd 9c38 203e 5226 333e
00000020: 7b25 87bd c478 b7bd 01c0 a4bd 4411 783d
00000030: 6ac4 35bd f184 acbe 2932 043d d1f6 a0be
00000040: d0cf 973b 1b59 133e 9aea b9be 15e2 85be
00000050: 8fad 923c 8187 623e a867 d93d 5e6e 86be
00000060: b8e3 423e 5c52 67be d750 ddbd 1cab e6bd
00000070: 3a3c 9dbd 0b2e 90be b33e 31bd d2ad 903d
00000080: fe3c c83d 5d47 8bba 3242 c93d 41a7 0b3e
00000090: b3d6 313e d04b b1bd 6073 b73d c03b 973d
000000a0: f9b6 413e 0695 073e c440 613d 3363 f33c
000000b0: 7899 0b3e 0e0d 6abd ca85 93be b8b6 323e
000000c0: a72b bbbe a9dd 7d3e d925 8ebe 6f23 72be
000000d0: d108 62be c822 34be 53b9 c1be 2e2e c7bd
000000e0: f708 28be e1ff 043e 896a 73be 4a9a 053e
000000f0: 8cba c8bd 8f78 79be 44a7 cbbd 7f83 4c3e
00000100: 3d35 8f3d 876e ca3d febc ccbd a4c6 89bd
00000110: 02cd 163e bf44 ec3d 8fe9 debd 0cd4 61be
00000120: be31 113d 30e3 083e f89d 5dbe 3ddf 8fbe
00000130: 3895 8fbe 231f 47be e77f f83d ec6a d23d
00000140: 0b38 34be 9db9 92be 69a4 bfbd 5d03 e7bd
00000150: fef3 88be 611f b7bd 4a80 423e 466d afbd
00000160: 4949 d93d fa8d ab3d fd80 163e fe20 5cbe
00000170: c83f debd d1b4 9bbe 5a0a 90bd 2359 83bd
00000180: caf5 323e c969 133e 848f a9be aad3 8abc
00000190: 6e86 2c3e 0085 7b3d c4bb da3d 1d86 4bbe
000001a0: a4ef 8dbe f4d5 f83d 75c4 933c 79a1 7fbe
000001b0: ff94 12be a611 57bb 3c5d 6dbd 1def 49be
000001c0: af28 34bd 236e 83be 433e 0dbe 1294 b43d
000001d0: b966 abbe 8361 133d 6d98 0e3e 3372 33be
000001e0: 4873 583d db59 86be 4f43 2bbe 2838 9cbb
000001f0: 00b7 02be d1d0 453c 781e 1e3d 2ba6 58be
00000200: e9cd 89be 87c7 5dbe 0eae 1f3e 8727 69be
00000210: 5ace 093e da7b 1cbe 7bb3 983d 0fb1 19be
00000220: 2b98 37ba 0917 13be e38d 603d fe15 313d
00000230: c834 11be 4646 753d d896 78bd 5202 9fbd
00000240: 1e18 333e e974 ec3d 9d97 dcbe fb58 2a3d
00000250: c850 21be a655 45bc eb5c ac3d c034 b8bd
00000260: fdb8 813d 0d73 d23d 1fc1 663e 20da 2e3e
00000270: cbb9 153e 31e3 27be 5157 1a3d d26b 67be
00000280: 92f7 11be 6daf 1f3e d23b 0f3e 30f3 e7bc
00000290: 4c63 1ebe a593 3cbe fbda 123e 2e48 15be
000002a0: 2c4a 76be 8bce 8dbe 90cd 2d3d 7326 5cbb
000002b0: f61c 01be c7ed 88be 12dd 40be 5a4f 0bbe
000002c0: 1ba4 23be c661 a9be afc9 913e 228e 5bbe
000002d0: 3be6 45be 3028 ddbd ddf8 38be fcd9 4e3e
000002e0: 326a 203e 582f 083e 6f87 0bbe 6fba 463e
000002f0: 4eba 413e f642 d9bd 8b0a 7cbe e2ce 853d
00000300: 8d01 0abe a54d 31be b0cc 613e d0ea 90bd
00000310: 303e 363e fc28 603e ec8f 36bd cd50 fd3d
00000320: 18ee 82bd 8310 b0be 9fe1 2a3e 5acd 84bc
00000330: 7964 bfbd 68e9 febd d559 443e cd6d 343e
00000340: 1ecd 823e 0077 5e3d 8495 66be c884 4dbe
00000350: 1a8f c3bd aaab 47be 6154 94bd 978d 0abd
00000360: 4a18 34be a606 01bd a9e9 223e 2366 8bbe
00000370: 7746 5abe 62d6 1b3d 6366 6c3e 76ab a1bc
00000380: 875d 233e 2af1 8ebe 3fb7 5cbe b83f 203e
00000390: 4c7b bf3d 91a0 3cbe f750 35bd 63d4 b0bb
000003a0: a711 5d3d 9750 0ebe 75f2 22bd 78b7 3ebd
000003b0: 1d2f 01be 4019 01be 19b4 52be 19c8 acbc
000003c0: ea07 76be 463f 29be 058a 263d 2ca0 953d
000003d0: 7602 dbbd 0c86 5b3e 332d fcbd 20b4 873d
000003e0: 92ba 39be c1ef 8e3c 8aec dd3d 62aa 3f3e
000003f0: 63a0 c5bd 2cd1 81be cca3 49be 63ff 99be
